backend/models/threat_scorer_rl.pt (torch, 93250 bytes, 12 tensors)

network.0.weight f4 [128, 19]
-0.049438167 -0.1707507 -0.29027987 -0.11806579 0.2918673 -0.4285385 -0.13939239 -0.107314296
-0.21430694 -0.24962024 0.085336365 0.11508489 0.066601984 0.06096022 -0.06414499 -0.17611694
0.19802494 0.12797321 0.087900646 0.1335404 -0.33377913 0.3901214 0.2037353 -0.115166925
-0.15429756 0.10985656 -0.2572797 -0.23415437 -0.17914478 -0.80126846 0.11676875 -0.01663401
-0.2215081 0.80946815 0.17011659 -0.086964026 -0.30613065 -0.05190501 -0.3980107 -0.19042315
-0.09675413 0.03891051 0.102352194 0.032596882 0.21759981 0.18491445 -0.041347455 -0.25367558
-0.154175 -0.21892245 -0.01626559 -0.0124105 -0.38622868 -0.22309756 -0.1863187 -0.4310147
0.0994554 -0.16639484 -0.37805155 -0.24487591 0.42436954 -0.034307208 0.105714194 -0.024417618
0.09415361 0.13892733 0.117486164 -0.045841016 -0.24006651 -0.15584625 -0.004091921 0.013649022
-0.1770066 -0.5795527 -0.8174018 -0.14956997 -0.14424783 -0.13217655 -0.42835706 0.10812616
-0.45266178 -0.14202711 0.034297224 -0.05737811 0.0017586094 -0.10897963 -0.0398997 -0.15783846
-0.07067649 -0.25369343 0.019127557 -0.23942257 -0.31182978 -0.07407904 -0.09802797 0.020080203
-0.9754527 -0.26475367 -1.3115033 -1.0023638 0.2031311 -0.2605716 0.16117936 -0.22851323
0.012393684 -1.0752698 -0.044577178 -0.21012998 -0.53029215 0.09853337 -0.08706581 0.27635738
-0.10574381 -0.15683454 -0.3990924 -0.33228981 -0.0704284 0.06735861 0.3232552 0.1605261
-0.057526298 -0.35460234 0.008784957 0.17446993 -0.026379095 0.11931971 0.2786989 -0.26242554
0.05660096 -0.2314457 -0.05087637 -0.29108757 0.02376571 0.32375193 -0.18658476 0.10876485
-0.02991105 -0.11349328 0.17315917 -0.1724134 -0.0059484807 -0.017804792 0.035115067 -0.011728916
0.14635278 -0.15371679 -0.12302722 0.0075387526 -0.040955827 0.17888926 -0.034246717 -0.014139466
-0.11097606 0.04207291 -0.21315129 0.1807829 -0.10034768 -0.02378441 0.5751557 -0.09335886
0.25838813 0.10537716 0.039804325 -0.1611234 0.24042042 -0.12450975 -0.012923516 -0.025533099
-0.04609993 -0.040164806 0.22803137 -0.6345527 -0.24984387 0.20002623 -0.13218108 -0.25779077
-0.06965466 -0.16533731 0.12688635 0.15051825 -0.37993127 -0.07321407 0.12026112 0.25951794
-0.41192687 -0.07842928 0.39610022 0.15847124 -0.3078854 0.054434832 -0.37502602 -0.28120098
-0.41063353 0.04554693 -0.16152622 -0.23325305 0.29480812 -0.23258151 0.107648455 -0.26020765
-0.10079278 -0.025368 0.19094098 -0.2816306 0.11247203 0.27798182 0.23211463 -0.0365338
0.06169891 -0.4094024 0.04348493 -0.08402173 0.1148775 0.006968318 -0.07823634 -0.12732121
-0.27466464 -0.052443646 -0.14021778 -0.30885193 -0.2781883 0.2830997 0.033915386 -0.30963516
-0.25819385 -0.0583992 -0.22411999 0.00045364714 0.3134599 -0.047897138 0.17460474 -0.2301812
-0.09674006 -0.14242642 -0.33257082 0.055389162 0.100862764 -0.14230032 0.05955871 -0.058964744
0.0907906 0.08308418 -0.03549306 0.18443187 -0.029780028 -0.11327535 -0.021213353 -0.15606442
-0.0693543 0.12869747 0.11312729 0.028862251 -0.3352031 0.39063245 -0.10714553 0.048166055
00000000: ad7f 4abd 46d9 2ebe 909f 94be 7acc f1bd
00000010: a16f 953e 6669 dbbe e1bc 0ebe 99c7 dbbd
00000020: 4773 5bbe 739c 7fbe d5c4 ae3d a0b1 eb3d
00000030: 9f66 883d 6cb1 793d 735e 83bd 0058 34be
00000040: 0dc7 4a3e 690b 033e 4105 b43d d1be 083e
00000050: 19e5 aabe febd c73e fd9f 503e a3dc ebbd
00000060: 2e00 1ebe 7afc e03d 2aba 83be 2ac6 6fbe
00000070: bb71 37be ee1f 4dbf 7424 ef3d 0c44 88bc
00000080: 05d3 62be 4e39 4f3f 0b33 2e3e 321a b2bd
00000090: 28bd 9cbe 599a 54bd 0fc8 cbbe 49fe 42be
000000a0: 0827 c6bd a060 1f3d 079e d13d 4f84 053d
000000b0: 7cd2 5e3e 375a 3d3e f35b 29bd c4e1 81be
000000c0: 0de0 1dbe 352d 60be 6a3f 85bc 6955 4bbc
000000d0: c4bf c5be b073 64be 54ca 3ebe f5ad dcbe
000000e0: 46af cb3d 6963 2abe f98f c1be c0c0 7abe
000000f0: f746 d93e b785 0cbd af80 d83d 7507 c8bc
00000100: 9cd3 c03d f742 0e3e 969c f03d cac3 3bbd
00000110: ffd3 75be 2996 1fbe 8515 86bb 26a0 5f3c
00000120: 3841 35be 915d 14bf 3f41 51bf df28 19be
00000130: b4b5 13be 4a59 07be 9e51 dbbe 4071 dd3d
00000140: 49c3 e7be 8e6f 11be 3f7b 0c3d 4f05 6bbd
00000150: 2481 e63a b630 dfbd de6d 23bd 68a0 21be
00000160: d6be 90bd 1be4 81be 65b1 9c3c 312b 75be
00000170: 27a8 9fbe c0b6 97bd e3c2 c8bd 3d7f a43c
00000180: 45b7 79bf cb8d 87be 57df a7bf 754d 80bf
00000190: 9901 503e a469 85be 340c 253e 5fff 69be
000001a0: e10e 4b3c 71a2 89bf 8f96 36bd 502c 57be
000001b0: 3ac1 07bf ddcb c93d 8f4f b2bd b77e 8d3e
000001c0: 3690 d8bd 3c99 20be d755 ccbe e421 aabe
000001d0: c43c 90bd 50f3 893d b581 a53e f460 243e
000001e0: b2a0 6bbd 708e b5be c8ee 0f3c 3fa8 323e
000001f0: f918 d8bc e45d f43d 9fb1 8e3e a45c 86be
00000200: 69d6 673d 1a00 6dbe be63 50bd 6e09 95be
00000210: 4eb0 c23c d0c2 a53e 1310 3fbe 1bc0 de3d
00000220: 0508 f5bc 2a6f e8bd a350 313e 238d 30be
00000230: 79eb c2bb 5bdb 91bc d1d4 0f3d a42a 40bc
00000240: 81dd 153e ef67 1dbe b2f5 fbbd a407 f73b
00000250: 4cc1 27bd bf2e 373e 4946 0cbd 38a9 67bc
00000260: 6b47 e3bd a554 2c3d 5544 5abe 271f 393e
00000270: 1683 cdbd 86d7 c2bc 673d 133f ee32 bfbd
00000280: 734b 843e fbcf d73d dc09 233d 88fd 24be
00000290: c530 763e f8fe febd 28bd 53bc ca2a d1bc
000002a0: 48d3 3cbd da83 24bd 0e81 693e 0c72 22bf
000002b0: 12d7 7fbe add3 4c3e 7a5a 07be 27fd 83be
000002c0: 1aa7 8ebd 2f4e 29be 7fee 013e 7521 1a3e
000002d0: 5a86 c2be 42f1 95bd 764b f63d 89df 843e
000002e0: 14e8 d2be 889f a0bd a6cd ca3e 4946 223e
000002f0: 28a3 9dbe 0ff7 5e3d 6903 c0be 93f9 8fbe
00000300: 8f3e d2be 6b8f 3a3d 2167 25be e3d9 6ebe
00000310: 17f1 963e d929 6ebe cb76 dc3d f039 85be
00000320: 726c cebd 8dd0 cfbc 0886 433e e331 90be
00000330: bc57 e63d a253 8e3e 75af 6d3e 77a4 15bd
00000340: ffb7 7c3d 319d d1be 411d 323d 9613 acbd
00000350: e544 eb3d 7d56 e43b 603a a0bd 7e60 02be
00000360: d8a0 8cbe 26cf 56bd 4095 0fbe d721 9ebe
00000370: b26e 8ebe 72f2 903e dcea 0a3d 8088 9ebe
00000380: fc31 84be 0034 6fbd b67f 65be 7dd7 ed39
00000390: d17d a03e ca2f 44bd 96cb 323e 9fb4 6bbe
000003a0: a71f c6bd 3bd8 11be b946 aabe bfdf 623d
000003b0: 2391 ce3d 2db7 11be d5f3 733d 0485 71bd
000003c0: 6cf0 b93d 0a28 aa3d 2c61 11bd b5db 3c3e
000003d0: 3ff5 f3bc e8fc e7bd a0c7 adbc 5acf 1fbe
000003e0: a109 8ebd 45c9 033e 48af e73d 8770 ec3c
000003f0: be9f abbe fa00 c83e 1e6f dbbd c549 453d

network.0.bias f4 [128]
0.9688594 -0.4053133 0.086776644 -0.7446526 0.27800643 -0.60179895 -0.6260802 1.0375873
-1.7412049 -0.38346967 0.5395472 0.2052609 1.2140692 0.6397076 -0.25124708 -0.3894908
1.1772125 -0.5290333 0.34130797 1.1051177 -1.0480593 0.7834441 -0.27857703 0.95196676
-0.62989223 -0.7180909 -0.21767764 1.0415043 -0.27183703 -0.15214513 -0.24741997 -0.9327601
-0.99306715 -0.3105725 -0.9049992 -0.02331667 1.0079825 -0.25510475 -0.25737944 1.1441724
-0.37198773 -0.91982514 -0.15294603 -0.7460724 0.75971746 -0.5763542 0.8295475 1.0553766
-0.9882358 -0.6923878 0.17345431 0.83941865 -0.47702044 -0.2745061 -1.3416752 -0.3186831
0.28095743 1.193064 -1.4036335 -1.2249973 -0.48015404 -0.738646 -0.5119436 0.16726013
-0.9617109 -1.3329611 1.0452285 0.69835424 -0.60498655 -0.26979014 0.30390733 -0.8500623
-0.40137738 0.8946308 -0.34682465 -0.6704779 -0.92904407 0.76956004 -0.36789763 -0.15172762
-0.4031505 -0.01338511 0.8095959 -0.5895909 -0.3382013 -0.6497862 -0.45709884 -0.46062577
0.76853466 -0.3357747 -1.0286152 -0.40589836 -0.20274968 -0.43673453 -0.9722819 0.47197986
-0.037947636 -0.34449476 0.8364738 0.8564639 -0.23557311 -0.33480695 -1.4683509 1.2041312
-0.93122095 -1.274919 0.7218343 -0.66508406 0.55479205 0.8492871 -1.7974876 -0.62518233
-0.36053282 -0.40182596 -0.6113192 -0.68370324 -1.155541 -0.50419676 -0.10772249 -0.39252675
-0.3352491 -0.61896724 -1.4355178 0.8485553 -0.24192868 -0.18927284 0.12431614 -0.90045947
00000000: 2b07 783f 3a85 cfbe f4b7 b13d 8ea1 3ebf
00000010: dc56 8e3e 7f0f 1abf cb46 20bf a9cf 843f
00000020: cddf debf 2356 c4be c41f 0a3f ea2f 523e
00000030: 9f66 9b3f e1c3 233f 75a3 80be 576b c7be
00000040: e6ae 963f ba6e 07bf ebbf ae3e 7f74 8d3f
00000050: cf26 86bf cb8f 483f a6a1 8ebe 18b4 733f
00000060: 9e40 21bf ced4 37bf e3e6 5ebe 0350 853f
00000070: 392e 8bbe efcb 1bbe a95b 7dbe 5ec9 6ebf
00000080: a639 7ebf 5c03 9fbe 07ae 67bf 9a02 bfbc
00000090: 9205 813f 179d 82be 3dc7 83be 3e74 923f
000000a0: 2d75 bebe a979 6bbf e29d 1cbe 9afe 3ebf
000000b0: d87c 423f f38b 13bf 3a5d 543f 9516 873f
000000c0: 05fd 7cbf 5440 31bf 029e 313e 24e4 563f
000000d0: 063c f4be 108c 8cbe 03bc abbf 6e2a a3be
000000e0: a7d9 8f3e 52b6 983f 43aa b3bf b6cc 9cbf
000000f0: c0d6 f5be e717 3dbf bc0e 03bf 3d46 2b3e
00000100: af32 76bf 789e aabf 0cca 853f 58c7 323f
00000110: 66e0 1abf ef21 8abe be99 9b3e af9d 59bf
00000120: 5681 cdbe 8606 653f 0093 b1be 71a4 2bbf
00000130: d5d5 6dbf e301 453f 145d bcbe 7c5e 1bbe
00000140: be69 cebe 384d 5bbc ad41 4f3f 6eef 16bf
00000150: b928 adbe 6358 26bf dc08 eabe 24d7 ebbe
00000160: b0be 443f a9ea abbe aaa9 83bf e9d1 cfbe
00000170: 9d9d 4fbe ab9b dfbe 77e7 78bf 58a7 f13e
00000180: fb6e 1bbd 9e61 b0be 2623 563f 3841 5b3f
00000190: 143a 71be d16b abbe ecf2 bbbf f920 9a3f
000001a0: 7f64 6ebf 8c30 a3bf 22ca 383f f342 2abf
000001b0: da06 0e3f e16a 593f 1314 e6bf f30b 20bf
000001c0: c297 b8be 22bc cdbe 6a7f 1cbf 2d07 2fbf
000001d0: c4e8 93bf 0a13 01bf 9c9d dcbd 44f9 c8be
000001e0: c5a5 abbe a374 1ebf 0cbf b7bf ec3a 593f
000001f0: 27bc 77be bdd0 41be 7699 fe3d 8384 66bf

network.2.weight f4 [64, 128]
0.24447183 0.29720208 0.17518406 0.10608759 0.021233851 0.37993336 0.23288712 0.30315468
-0.17620668 0.076214135 0.12955692 0.09199377 0.37638962 0.20060897 0.065048 -0.007130753
0.24639328 0.045136582 -0.023880787 0.3794514 -0.36655632 0.20300804 -0.08637305 0.39272177
0.37598944 0.016423134 0.05710492 0.23072386 -0.029338645 -0.07940186 0.007803721 0.06588126
-0.074717395 -0.056566767 -0.29827258 -0.103956565 0.245243 -0.16194601 0.12084874 0.3091849
0.07588594 -0.06854219 -0.08485201 -0.2139093 0.29716837 0.045026988 0.09450945 0.057926156
0.12657046 -0.047837 0.08627314 0.10249089 -0.0070689255 -0.043093435 -0.2928467 -0.04897177
0.14092794 0.47779867 -0.13714534 -0.34979075 -0.20073481 0.015846115 0.5519157 -0.06208118
-0.0035332171 0.15597412 0.2549279 0.05127494 0.53371876 -0.0045268587 0.18483232 -0.0003606801
0.1693188 0.31119302 -0.19312155 -0.18987614 -0.33881623 0.11499514 0.1897632 -0.26589915
0.0831279 0.0676053 0.30801633 -0.2504128 -0.1715577 0.11893779 -0.08727082 -0.18481854
0.16097073 -0.07426019 -0.11320737 -0.2984484 0.17972153 0.02044602 0.038151607 0.15072063
0.13814531 -0.069378756 0.182887 0.16285995 0.000411748 -0.102253966 -0.06847403 0.30799225
-0.5189868 -0.12288525 0.15836228 -0.14369158 -0.016575249 0.15770987 -0.4065259 -0.49778324
-0.038959466 0.12921509 0.47027057 -0.3963405 0.11903141 -0.300697 0.041248422 -0.5333435
-0.010409467 0.024670856 -0.4468484 0.31556404 -0.011133897 0.08085962 0.17690232 0.11920442
0.041296396 -0.13231446 -0.076561324 -0.099069975 -0.09441647 0.045740087 -0.0012558287 -0.039130922
-0.12235479 -0.5148207 -0.14576855 -0.17453444 0.017959572 0.06981143 -0.10532516 -0.04634134
-0.24510315 -0.0013657924 -0.53258795 -0.010467177 -0.2391189 0.13289388 -0.18245815 0.32368174
-0.07748355 0.11507832 -0.07033747 -0.22784969 -0.103206985 -0.40771213 0.31662235 -0.009833347
-0.15215668 -0.1474757 -0.37362826 -0.13002677 -0.11115742 -0.2029672 0.10317796 -0.07223573
-0.08681484 -0.2953547 -0.017451799 -0.48366442 -0.49431378 -0.17330725 -0.07568071 -0.5188771
-0.38854697 0.019436702 0.002819101 -0.09509782 0.19500327 -0.025267143 0.22144961 -0.3354834
-0.12037433 0.24370316 -0.25546885 -0.23163351 -0.48665985 -0.033717602 0.14043704 -0.38735688
-0.41888294 0.021076463 -0.17624722 -0.1278214 0.3304539 -0.09730128 -0.4422798 -0.1466269
-0.14943342 0.17366916 -0.17205957 -0.06638271 -0.113609545 -0.055267204 -0.20450342 -0.083818704
0.09705996 -0.12278299 -0.025345821 0.057352867 -0.19850291 -0.04374379 -0.023958558 -0.3540208
-0.16586019 -0.18435034 -0.28456444 -0.111569 0.3261855 -0.14435454 -0.20841584 0.010156462
-0.08516218 0.0053500813 0.056113925 -0.076012716 -0.004535894 -0.35329157 -0.0823882 0.039029125
-0.2319827 0.08793125 -0.4272086 0.13169779 -0.32567993 -0.088258535 -0.23625147 0.05085111
-0.010697975 -0.008694243 -0.16038176 0.03914351 -0.041276466 -0.040924896 -0.1240282 -0.048612818
0.34708592 -0.041966785 0.012314021 -0.679943 0.43994164 0.071805656 -0.19693097 0.19278497
00000000: d356 7a3e df2a 983e 7363 333e 7344 d93d
00000010: 9df2 ad3c a086 c23e f679 6e3e 1737 9b3e
00000020: 866f 34be 2816 9c3d 92aa 043e 3b67 bc3d
00000030: 24b6 c03e 706c 4d3e e337 853d 17a9 e9bb
00000040: 854e 7c3e 23e1 383d a4a1 c3bc 7447 c23e
00000050: 45ad bbbe 57e1 4f3e 5be4 b0bd d412 c93e
00000060: b081 c03e cf89 863c d9e6 693d e042 6c3e
00000070: 9957 f0bc 719d a2bd 5bb6 ff3b c1ec 863d
00000080: 6f05 99bd 8eb2 67bd 2fb7 98be 2ee7 d4bd
00000090: fb20 7b3e 2dd5 25be 8b7f f73d 7c4d 9e3e
000000a0: 166a 9b3d d95f 8cbd e4c6 adbd 0a0b 5bbe
000000b0: 7426 983e 386e 383d 2c8e c13d fa43 6d3d
000000c0: b09b 013e bbf0 43bd f9af b03d bee6 d13d
000000d0: 72a2 e7bb be82 30bd 01f0 95be 9f96 48bd
000000e0: 6a4f 103e 07a2 f43e d46f 0cbe c617 b3be
000000f0: 6d8d 4dbe b6cf 813c 594a 0d3f d648 7ebd
00000100: 8c8d 67bb aeb7 1f3e e985 823e ac05 523d
00000110: cba1 083f 0b56 94bb af44 3d3e aa19 bdb9
00000120: e861 2d3e b154 9f3e a8c1 45be e46e 42be
00000130: 5279 adbe 9282 eb3d 4951 423e ef23 88be
00000140: f63e aa3d a674 8a3d 51b4 9d3e 1b36 80be
00000150: d2ac 2fbe a895 f33d 0bbb b2bd 1241 3dbe
00000160: 83d5 243e ba15 98bd 44d9 e7bd 3bce 98be
00000170: ec08 383e 697e a73c dc44 1c3d 8256 1a3e
00000180: f775 0d3e 7316 8ebd bb46 3b3e c2c4 263e
00000190: e2df d739 876a d1bd 1d3c 8cbd 29b1 9d3e
000001a0: 52dc 04bf 43ab fbbd b929 223e e323 13be
000001b0: d1c8 87bc b27e 213e 2a24 d0be 72dd febe
000001c0: f693 1fbd f650 043e 4ec7 f03e 24ed cabe
000001d0: bdc6 f33d f5f4 99be 1bf4 283d 3389 08bf
000001e0: 788c 2abc 891a ca3c 50c9 e4be 9c91 a13e
000001f0: f36a 36bc ba99 a53d e225 353e 7221 f43d
00000200: 6926 293d 717d 07be 2fcc 9cbd 33e5 cabd
00000210: 6c5d c1bd f559 3b3d 9e9a a4ba bf47 20bd
00000220: 2695 fabd 4acb 03bf 5a44 15be 28b9 32be
00000230: f41f 933c 4cf9 8e3d b8b4 d7bd 6bd0 3dbd
00000240: 52fc 7abe 6304 b3ba af57 08bf 867e 2bbc
00000250: 96db 74be 5515 083e 4fd6 3abe 9db9 a53e
00000260: b2af 9ebd 2fae eb3d 170d 90bd 6e51 69be
00000270: 2f5e d3bd a5bf d0be 531c a23e 0c1c 21bc
00000280: f6ce 1bbe df03 17be 344c bfbe bd25 05be
00000290: 80a6 e3bd a2d6 4fbe f74e d33d 54f0 93bd
000002a0: fbcb b1bd bb38 97be 13f7 8ebc dda2 f7be
000002b0: b216 fdbe 7577 31be 7dfe 9abd 21d5 04bf
000002c0: a1ef c6be b839 9f3c abc0 383b a5c2 c2bd
000002d0: f0ae 473e 0afd cebc b0c3 623e 7bc4 abbe
000002e0: d186 f6bd 528d 793e d0cc 82be 5631 6dbe
000002f0: 7b2b f9be 781b 0abd bace 0f3e a453 c6be
00000300: d377 d6be 8ca8 ac3c 277a 34be 9de3 02be
00000310: 4131 a93e e545 c7bd 7f72 e2be 5d25 16be
00000320: 1305 19be 54d6 313e 6230 30be a9f3 87bd
00000330: 1fac e8bd dd5f 62bd 5869 51be 24a9 abbd
00000340: 5fc7 c63d a675 fbbd 0aa2 cfbc d7ea 6a3d
00000350: 5944 4bbe b02c 33bd bd44 c4bc 3742 b5be
00000360: 41d7 29be 56c6 3cbe 6eb2 91be 4a7e e4bd
00000370: c901 a73e add1 13be f66a 55be 4a67 263c
00000380: 8269 aebd bc4f af3b b7d7 653d 8eac 9bbd
00000390: d6a1 94bb a2e2 b4be 25bb a8bd 01dd 1f3d
000003a0: df8c 6dbe 4d15 b43d 16bb dabe c9db 063e
000003b0: 85bf a6be e4c0 b4bd e8eb 71be 4149 503d
000003c0: 8f46 2fbc 4c72 0ebc 1e3b 24be f254 203d
000003d0: 8311 29bd dda0 27bd 7f02 febd 3c1e 47bd
000003e0: 3fb5 b13e 5de5 2bbd bfc0 493c bf10 2ebf
000003f0: 0840 e13e d80e 933d 46a8 49be 6c69 453e

network.2.bias f4 [64]
0.9418205 0.735738 -0.025639806 -0.174244 -0.07208594 1.0351651 0.017222296 0.7061355
0.0072503597 -0.014623483 0.5591666 -0.14845057 1.3639482 -0.025514081 -0.076960005 0.43861023
-0.054730665 1.077072 0.057602476 -0.072282024 0.6705594 0.47616154 0.91494787 0.8085095
0.79128057 0.02192921 1.1242018 1.0486956 0.02033354 -0.06468136 0.8402447 0.8023819
-0.105568685 1.3007852 0.32196236 0.973139 -0.10301499 0.53568935 -0.123949595 -0.10057588
0.7630487 0.5501896 0.8448593 -0.0934581 0.9040281 -0.09988346 0.77695566 1.3033772
-0.029253365 0.9201358 0.86929864 0.9292669 0.3785888 -0.040198967 -0.2617333 0.0058410317
1.2517889 0.73486805 0.82311904 1.0429863 1.4855394 -0.10564026 1.2217654 0.02927734
00000000: 261b 713f 5359 3c3f 920a d2bc 056d 32be
00000010: cba1 93bd 4a80 843f c615 8d3c 4cc5 343f
00000020: 6d94 ed3b 5597 6fbc 8b25 0f3f 6d03 18be
00000030: db95 ae3f e802 d1bc 359d 9dbd 8591 e03e
00000040: 432d 60bd 7fdd 893f 93f0 6b3d 9908 94bd
00000050: c8a9 2b3f 72cb f33e 063a 6a3f 7bfa 4e3f
00000060: 5d91 4a3f e3a4 b33c d8e5 8f3f a83b 863f
00000070: 8692 a63c a977 84bd 471a 573f e668 4d3f
00000080: 6534 d8bd 2180 a63f 40d8 a43e a31f 793f
00000090: 86f9 d2bd f022 093f 49d9 fdbd bafa cdbd
000000a0: 2957 433f 3ad9 0c3f b348 583f f666 bfbd
000000b0: 636e 673f b38f ccbd 91e6 463f 10d5 a63f
000000c0: c1a4 efbc 058e 6b3f 5b8a 5e3f 70e4 6d3f
000000d0: 64d6 c13e aca7 24bd e801 86be 2066 bf3b
000000e0: 9e3a a03f 5020 3c3f eeb7 523f 9380 853f
000000f0: 2826 be3f ec59 d8bd cf62 9c3f 08d7 ef3c

network.4.weight f4 [4, 64]
0.12919907 0.23115568 0.04478273 0.04679322 -0.057584368 0.4005949 -0.010342291 0.25901642
0.005042667 0.045874532 -0.15091923 0.0027776165 0.12282334 0.05970254 0.08625305 0.011274722
-0.084556796 0.27665162 -0.079445384 -0.079173714 0.12014176 0.27833685 0.19716157 0.27731767
0.26337814 0.19811907 -0.048429914 0.18139888 0.029642615 0.069387555 0.2854946 0.34718356
0.017563662 0.104523756 -0.22317511 0.11421391 0.09223567 0.14811009 0.09047114 -0.084782295
0.13222815 0.07763099 0.0530384 0.084086 0.17237872 0.07138764 0.14306492 0.110545345
-0.06330599 0.059576068 0.084437266 -0.06689183 0.40990302 -0.11720434 0.05016511 0.05467433
0.07178965 0.32555795 0.24644962 0.23945007 0.46379238 0.008829888 0.19525972 0.08765143
0.19276048 0.17803866 0.024514228 -0.015854513 0.046694066 0.27783373 0.05469668 0.1371499
0.010099149 -0.023719938 0.44771254 -0.07083441 0.1493865 -0.078940585 -0.043337792 0.06809061
-0.10291156 0.2876037 0.11690133 -0.06296344 -0.104543775 0.83568144 0.10010876 0.22595577
0.6965899 -0.0034044674 0.0056695947 0.31353042 0.056187104 0.03487453 0.18035668 0.12789015
-0.010984827 0.21280524 0.15279658 0.16919127 0.031376928 -0.018504024 0.004485451 0.008536902
0.17826903 0.0321564 0.1094667 0.11454907 0.22980817 0.0171866 0.054333635 0.25431392
-0.059232347 0.060839508 0.08957792 0.10910905 0.018784089 -0.015392121 -0.15599667 0.10038487
0.154521 0.105980776 0.15964104 0.3112683 0.18983638 0.01711493 0.16336216 -0.043099266
0.41685343 0.110139176 -0.0807382 0.0067176265 0.011487241 0.27765363 -0.017693691 0.14172055
-0.0047327 -0.031136934 -0.015561104 -0.13937482 0.16936323 -0.031284377 -0.020088503 -0.061600275
0.04228757 0.2341322 -0.0290894 0.07469119 -0.059080917 0.9260584 0.08049125 0.17970452
0.4378117 -0.03848021 0.12758717 0.24736945 -0.082378276 -0.048189737 0.15618373 0.098359846
0.024838895 0.15525618 -0.016441425 0.1812751 -0.06804639 0.004722836 -0.0021483346 -0.02542938
0.10183881 0.008774315 0.11428561 0.05387002 0.18520872 -0.0059418827 0.16683653 0.24746858
-0.063045524 0.03971724 0.13970716 0.011395215 0.00046122185 0.01269047 -0.12480867 -0.044672623
0.1409933 0.08932826 0.23374696 0.26130155 0.2397902 -0.07259655 0.14454386 -0.038730636
0.236148 0.048188794 0.02674714 0.012790624 -0.11787293 0.29683727 0.09923913 0.18114991
-0.05648795 0.05123163 0.3579415 0.09284815 0.12685376 0.10049994 -0.06884122 -0.016681446
-0.06514385 0.3183417 0.036817137 0.00097450614 0.16199759 0.94106174 0.08441776 0.19609801
0.26528502 0.014653698 0.040321376 0.2787558 -0.0033262065 -0.11838716 0.19545792 0.140103
0.07520566 0.1450459 0.009891957 0.026602741 0.0932397 -0.030214395 0.06660985 -0.048563853
0.15617742 0.023828685 0.17820387 0.046400573 0.19839655 -0.045606602 0.16189222 0.23554361
-0.06746729 0.06535853 0.18869211 -0.0014781167 -0.004141676 0.0056397254 0.0847476 0.019962415
0.14188296 0.08773577 0.21485266 0.21949987 0.178733 -0.099309385 0.18729706 0.028688785
00000000: c34c 043e 13b4 6c3e 196e 373d 3faa 3f3d
00000010: 96dd 6bbd c61a cd3e b672 29bc cd9d 843e
00000020: f53c a53b efe6 3b3d 928a 1abe ac08 363b
00000030: ce8a fb3d a78a 743d 70a5 b03d 9db9 383c
00000040: 1d2c adbd 48a5 8d3e 43b4 a2bd d425 a2bd
00000050: e20c f63d 2b82 8e3e b9e4 493e 95fc 8d3e
00000060: 80d9 863e badf 4a3e 725e 46bd a1c0 393e
00000070: 12d5 f23c 101b 8e3d 592c 923e 0bc2 b13e
00000080: abe1 8f3c 8d10 d63d 0488 64be fce8 e93d
00000090: 0ee6 bc3d 2caa 173e ef48 b93d 57a2 adbd
000000a0: d166 073e fffc 9e3d cb3e 593d 4835 ac3d
000000b0: 0c84 303e af33 923d 9c7f 123e 9965 e23d
000000c0: 92a6 81bd 0906 743d 72ed ac3d 95fe 88bd
000000d0: cfde d13e d408 f0bd ee79 4d3d 31f2 5f3d
000000e0: 7406 933d 88af a63e 4a5d 7c3e 6632 753e
000000f0: 3276 ed3e 3cab 103c 2af2 473e 9882 b33d
00000100: 0163 453e c44f 363e 10d2 c83c 53e1 81bc
00000110: 4742 3f3d 3940 8e3e a009 603d 0671 0c3e
00000120: e776 253c 5150 c2bc 943a e53e a211 91bd
00000130: c6f8 183e 9aab a1bd f882 31bd 1773 8b3d
00000140: 4cc3 d2bd cb40 933e f769 ef3d faf2 80bd
00000150: 0c1b d6bd 38ef 553f d205 cd3d f360 673e
00000160: b753 323f 7c1d 5fbb 02c8 b93b 0f87 a03e
00000170: 7324 663d 98d8 0e3d 6caf 383e a3f5 023e
00000180: b4f9 33bc 9ee9 593e b576 1c3e 7a40 2d3e
00000190: 1885 003d c095 97bc b1fa 923b 5dde 0b3c
000001a0: 288c 363e 6eb6 033d 1430 e03d b498 ea3d
000001b0: d552 6b3e eaca 8c3c f28c 5e3d 6f35 823e
000001c0: 9e9d 72bd d932 793d a174 b73d 9174 df3d
000001d0: 17e1 993c 3c2f 7cbc 97bd 1fbe 9596 cd3d
000001e0: c13a 1e3e 730c d93d f178 233e 8f5e 9f3e
000001f0: 7864 423e 9c34 8c3c 6948 273e db88 30bd
00000200: d06d d53e a690 e13d 125a a5bd 891f dc3b
00000210: fb34 3c3c 9e28 8e3e 5cf2 90bc 311f 113e
00000220: c414 9bbb e212 ffbc 00f4 7ebc 46b8 0ebe
00000230: 8e6d 2d3e 0c24 00bd a590 a4bc 9250 7cbd
00000240: bb35 2d3d 5ac0 6f3e e54c eebc b2f7 983d
00000250: d5fe 71bd 2a12 6d3f 99d8 a43d 7604 383e
00000260: db28 e03e 6d9d 1dbd 36a6 023e 6b4e 7d3e
00000270: f1b5 a8bd 9a62 45bd a1ee 1f3e e370 c93d
00000280: f07a cb3c 7afb 1e3e 2bb0 86bc 2ea0 393e
00000290: e85b 8bbd 05c2 9a3b 13cb 0cbb 4651 d0bc
000002a0: de90 d03d 25c2 0f3c 930e ea3d cfa6 5c3d
000002b0: 5ba7 3d3e 20b4 c2bb 32d7 2a3e 6768 7d3e
000002c0: 031e 81bd 8bae 223d 650f 0f3e ffb2 3a3c
000002d0: 26d0 f139 b0eb 4f3c b09b ffbd a4fa 36bd
000002e0: 8c60 103e bcf1 b63d 5d5b 6f3e 51c9 853e
000002f0: 908b 753e 80ad 94bd 4e03 143e 04a4 1ebd
00000300: c8d0 713e 9d61 453d d11c db3c c48f 513c
00000310: 5d67 f1bd 0efb 973e e33d cb3d 5d7f 393e
00000320: e95f 67bd 42d8 513d 1c44 b73e 2c27 be3d
00000330: f4e5 013e ead2 cd3d a0fc 8cbd 87a7 88bc
00000340: 246a 85bd affd a23e 91cd 163d 0076 7f3a
00000350: b2e2 253e 6ce9 703f 38e3 ac3d ebcd 483e
00000360: 70d3 873e 1016 703c 0728 253d 15b9 8e3e
00000370: 7cfc 59bb f874 f2bd 1f26 483e 2977 0f3e
00000380: 6d05 9a3d ea86 143e e011 223c feed d93c
00000390: 75f4 be3d 2e84 f7bc bf6a 883d e4ea 46bd
000003a0: f9ec 1f3e 6034 c33c 137b 363e 870e 3e3d
000003b0: 7728 4b3e fdcd 3abd 13c7 253e 5832 713e
000003c0: 4a2c 8abd b1da 853d 8138 413e 5ebd c1ba
000003d0: e5b6 87bb 72cd b83b 2690 ad3d 3888 a33c
000003e0: c449 113e d0ae b33d 5602 5c3e 93c4 603e
000003f0: c905 373e b862 cbbd cdca 3f3e be04 eb3c

network.4.bias f4 [4]
0.27419698 1.1696523 1.0231999 0.9671378
00000000: 8c63 8c3e 2bb7 953f 37f8 823f 5896 773f

network.0.weight f4 [128, 19]
-0.047775257 -0.1665046 -0.293076 -0.11924686 0.27903476 -0.4356541 -0.14227886 -0.10395732
-0.2125638 -0.25221342 0.08500699 0.11524345 0.067757525 0.05846266 -0.06488199 -0.17947854
0.20077208 0.12844777 0.09193101 0.13421951 -0.32858166 0.41295257 0.20235172 -0.08737826
-0.14835426 0.115999274 -0.25716805 -0.2296684 -0.17896855 -0.8012673 0.11683705 -0.010881659
-0.22134809 0.8093574 0.17609009 -0.0814626 -0.30577198 -0.0547279 -0.4025581 -0.19226941
-0.11182024 0.0371309 0.08186427 0.028021844 0.2139522 0.18705545 -0.037853252 -0.25276643
-0.15638189 -0.21489397 -0.0116698155 -0.011352553 -0.39315018 -0.22927374 -0.19218843 -0.43647918
0.10548343 -0.18264306 -0.37150288 -0.22392884 0.4293803 -0.0075306273 0.1236706 -0.053511485
0.0876532 0.12123722 0.10387584 -0.016362207 -0.2483168 -0.17310278 -0.017463895 0.04319466
-0.19538918 -0.59760386 -0.83528936 -0.16281094 -0.14403234 -0.1293124 -0.45056102 0.11414111
-0.49426925 -0.13033268 0.03475516 -0.054509677 0.0034454027 -0.10589285 -0.039325465 -0.15583855
-0.06797202 -0.24869691 0.019808937 -0.2597412 -0.33257118 -0.0967876 -0.093923144 0.030306306
-0.96760774 -0.25475192 -1.2921298 -0.9656643 0.19715942 -0.24159615 0.15515259 -0.25388634
-0.010468094 -1.0669694 -0.03182616 -0.20141485 -0.52238643 0.103766486 -0.12721583 0.22328576
-0.13434501 -0.13516353 -0.42110938 -0.3257167 -0.05772572 0.078892194 0.33706546 0.15956846
-0.08075227 -0.37592083 -0.010473807 0.15651459 -0.03351139 0.097181916 0.25438604 -0.2865247
0.049776353 -0.24125631 -0.052534405 -0.28540865 -0.022417817 0.3221003 -0.18145424 0.11146818
-0.029406281 -0.12029346 0.16707397 -0.17297827 -0.006370137 -0.018151466 0.03421478 -0.0116015375
0.1453871 -0.15271705 -0.12308678 0.007279557 -0.044279754 0.18124925 -0.03592135 -0.0153562995
-0.11047313 0.055138975 -0.16157036 0.19943494 -0.05441585 -0.0014901045 0.5924472 -0.10574348
0.2502248 0.104093164 0.040222272 -0.16484544 0.23732004 -0.1257712 -0.012525165 -0.01113213
-0.030862894 -0.022843292 0.20065467 -0.62598133 -0.24961805 0.22184394 -0.13492157 -0.22994572
-0.060853455 -0.17156255 0.119330406 0.14591837 -0.37872857 -0.096161105 0.12719171 0.26191026
-0.4060629 -0.08783813 0.39618707 0.15244593 -0.3077358 0.04404519 -0.3797512 -0.27584282
-0.41999915 0.05117402 -0.2067706 -0.23736593 0.2937965 -0.22142984 0.10861653 -0.26704788
-0.10404099 -0.018145045 0.18883151 -0.29102874 0.10649959 0.27142334 0.22763598 -0.053575836
0.06762265 -0.40570763 0.042129327 -0.083236486 0.1344455 0.010084696 -0.06000918 -0.11267051
-0.26650158 -0.03412826 -0.11967371 -0.31942293 -0.2722264 0.29900232 0.0527515 -0.31036744
-0.30423075 -0.100401126 -0.24393037 0.00378813 0.31044212 -0.041447323 0.17963988 -0.22686583
-0.0994396 -0.14666916 -0.32681423 0.05407967 0.09846071 -0.14522311 0.060396995 -0.061075494
0.089824066 0.08127003 -0.03490376 0.17926382 -0.029074203 -0.11607636 -0.022107365 -0.15175772
-0.068225436 0.1328895 0.11185184 0.030138155 -0.33655855 0.39005348 -0.10256801 0.048052743
00000000: fdaf 43bd 2f80 2abe 0f0e 96be b337 f4bd
00000010: a5dd 8e3e 0e0e dfbe 8db1 11be 93e7 d4bd
00000020: 53aa 59be 1e22 81be 2518 ae3d c204 ec3d
00000030: 75c4 8a3d 8b76 6f3d d9e0 84bd 39c9 37be
00000040: 3297 4d3e d087 033e 5346 bc3d d770 093e
00000050: db3b a8be 856e d33e 4a35 4f3e 60f3 b2bd
00000060: 2eea 17be 0791 ed3d 88ab 83be 312e 6bbe
00000070: 8843 37be db1f 4dbf 4348 ef3d fc48 32bc
00000080: 13a9 62be 0c32 4f3f f650 343e ddd5 a6bd
00000090: 258e 9cbe 5d2a 60bd 181c cebe 46e2 44be
000000a0: 0302 e5bd 9216 183d 74a8 a73d 118e e53c
000000b0: 4916 5b3e 778b 3f3e 030c 1bbd 9a6a 81be
000000c0: 9322 20be 2a0d 5cbe c132 3fbc 0f00 3abc
000000d0: fb4a c9be bcc6 6abe 0bcd 44be 337a dfbe
000000e0: b207 d83d c806 3bbe a035 bebe 9a4d 65be
000000f0: bcd7 db3e 7bc3 f6bb 0347 fd3d dc2e 5bbd
00000100: 8583 b33d 384b f83d dbbc d43d 090a 86bc
00000110: c246 7ebe db41 31be 7110 8fbc e2ec 303d
00000120: 1a14 48be 91fc 18bf 86d5 55bf e9b7 26be
00000130: 377d 13be 786a 04be efaf e6be d0c2 e93d
00000140: dc10 fdbe ee75 05be 6d5b 0e3d 8a45 5fbd
00000150: 44cc 613b 5ade d8bd bd13 21bd 2494 1fbe
00000160: ea34 8bbd 67aa 7ebe 5a46 a23c ccfc 84be
00000170: c546 aabe 9438 c6bd c75a c0bd ee44 f83c
00000180: 24b5 77bf d86e 82be 8264 a5bf c735 77bf
00000190: 29e4 493e fb64 77be 52e0 1e3e 64fd 81be
000001a0: 5e82 2bbc 7492 88bf 265c 02bd b23f 4ebe
000001b0: 1ebb 05bf 8683 d43d de44 02be 06a5 643e
000001c0: bd91 09be 4f68 0abe a69b d7be 57c4 a6be
000001d0: ce71 6cbd 3b92 a13d d893 ac3e ea65 233e
000001e0: 7261 a5bd b278 c0be 559a 2bbc 5c45 203e
000001f0: 3d43 09bd 5007 c73d e33e 823e 5eb3 92be
00000200: 4ae2 4b3d e50b 77be 512e 57bd 1521 92be
00000210: 92a5 b7bc 55ea a43e 24cf 39be 6e49 e43d
00000220: 71e5 f0bc 6b5c f6bd 7015 2b3e 3721 31be
00000230: 95bc d0bb 62b2 94bc cc24 0c3d 6014 3ebc
00000240: 5be0 143e dc61 1cbe ec14 fcbd 5a89 ee3b
00000250: b05e 35bd 6799 393e 4422 13bd fd98 7bbc
00000260: bd3f e2bd 68d9 613d b372 25be ac38 4c3e
00000270: 28e3 5ebd 9c4f c3ba 9faa 173f 0a90 d8bd
00000280: 771d 803e cc2e d53d 1cc0 243d 3ecd 28be
00000290: 0604 733e 2aca 00be 5a36 4dbc 8a63 36bc
000002a0: 2ed4 fcbc db21 bbbc 6b78 4d3e 5040 20bf
000002b0: e09b 7fbe 0f2b 633e e128 0abe e476 6bbe
000002c0: 7941 79bd 18ae 2fbe 8063 f43d a06b 153e
000002d0: b6e8 c1be 1df0 c4bd 8b3e 023e 1a19 863e
000002e0: 7ae7 cfbe 7ae4 b3bd 08d9 ca3e c91a 1c3e
000002f0: 8c8f 9dbe bb68 343d c06e c2be 453b 8dbe
00000300: 210a d7be d99b 513d acbb 53be 0e10 73be
00000310: 7f6c 963e 81be 62be 5872 de3d 80ba 88be
00000320: 7113 d5bd eba4 94bc 0c5d 413e b801 95be
00000330: 751c da3d 00f8 8a3e 6819 693e 5672 5bbd
00000340: be7d 8a3d e9b8 cfbe cd8f 2c3d e477 aabd
00000350: 15ac 093e 483a 253c 30cc 75bd ccbf e6bd
00000360: e572 88be 13ca 0bbd 7d17 f5bd 678b a3be
00000370: 4261 8bbe d516 993e f511 583d 7be8 9ebe
00000380: 22c4 9bbe 1b9f cdbd e2c8 79be 4642 783b
00000390: 45f2 9e3e abc4 29bd 84f3 373e 844f 68be
000003a0: fda6 cbbd 7130 16be 3254 a7be a582 5d3d
000003b0: c5a5 c93d 5eb5 14be d762 773d 4c2a 7abd
000003c0: aef5 b73d e770 a63d 3ff7 0ebd ef90 373e
000003d0: 062d eebc 71b9 edbd 811a b5bc 6066 1bbe
000003e0: c7b9 8bbd 2f14 083e 9412 e53d 4be4 f63c
000003f0: 6751 acbe 17b5 c73e 2d0f d2bd f4d2 443d

network.0.bias f4 [128]
0.97006327 -0.4115508 0.09391268 -0.7258147 0.29095718 -0.6101013 -0.60256827 1.0380956
-1.7601798 -0.37410238 0.54104966 0.19866216 1.2148317 0.64186335 -0.25055107 -0.38644138
1.1765971 -0.5290333 0.34651515 1.1076795 -1.0480593 0.786544 -0.27600086 0.9520283
-0.62648034 -0.7190148 -0.226029 1.0423368 -0.23995017 -0.14734016 -0.24748081 -0.92228144
-0.9256416 -0.3105725 -0.93659 -0.01937763 1.007719 -0.23649672 -0.24282531 1.1440915
-0.37198773 -0.9182808 -0.1529654 -0.7151746 0.7618491 -0.58092976 0.84210634 1.0556568
-0.9882358 -0.6805035 0.18232302 0.8408746 -0.4789358 -0.2745061 -1.3418835 -0.3186831
0.28727436 1.1931894 -1.4295408 -1.2332212 -0.45956117 -0.7382229 -0.52178526 0.16551325
-0.94923 -1.3306023 1.0467604 0.7027755 -0.60498655 -0.26979014 0.30252603 -0.8491815
-0.40193385 0.8944059 -0.36639756 -0.6704779 -0.9177192 0.7724749 -0.38372234 -0.13647988
-0.4031505 -0.02793502 0.8094334 -0.5779859 -0.3480224 -0.6497862 -0.45709884 -0.4695981
0.77490735 -0.35105258 -1.0246421 -0.37476826 -0.19146682 -0.43673453 -0.9058757 0.47611028
-0.016449915 -0.34449476 0.8366908 0.85593224 -0.23475824 -0.31173795 -1.4683509 1.2035655
-0.9239087 -1.2691263 0.72582835 -0.6719054 0.56675774 0.8498814 -1.7923747 -0.6070419
-0.36053282 -0.41547647 -0.62934023 -0.6930029 -1.155541 -0.50419676 -0.10772249 -0.39289325
-0.32207862 -0.5948603 -1.4355178 0.84909046 -0.24730106 -0.16290432 0.1393111 -0.90045947
00000000: 1156 783f c9b6 d2be 4b55 c03d fece 39bf
00000010: 57f8 943e 992f 1cbf ea41 1abf 51e0 843f
00000020: 924d e1bf 598a bfbe 3b82 0a3f 186e 4b3e
00000030: 9b7f 9b3f 2851 243f 3b48 80be a5db c5be
00000040: bc9a 963f ba6e 07bf 6f6a b13e 71c8 8d3f
00000050: cf26 86bf f35a 493f fc4f 8dbe 20b8 733f
00000060: 0461 20bf 5b11 38bf 2574 67be 4b6b 853f
00000070: 7fb5 75be 57e0 16be 9c6b 7dbe a31a 6cbf
00000080: d9f6 6cbf 5c03 9fbe 5dc4 6fbf d6bd 9ebc
00000090: f0fc 803f 322c 72be 33a7 78be 9771 923f
000000a0: 2d75 bebe 7314 6bbf f6a2 1cbe af15 37bf
000000b0: 8b08 433f d0b7 14bf 4894 573f c31f 873f
000000c0: 05fd 7cbf 7a35 2ebf e3b2 3a3e 8f43 573f
000000d0: 1337 f5be 108c 8cbe d7c2 abbf 6e2a a3be
000000e0: a015 933e 6eba 983f 31fb b6bf 31da 9dbf
000000f0: 9a4b ebbe 2dfc 3cbf b893 05bf 4e7c 293e
00000100: bd00 73bf 2d51 aabf 3ffc 853f 18e9 333f
00000110: 66e0 1abf ef21 8abe b1e4 9a3e f563 59bf
00000120: 46ca cdbe c9f7 643f 7698 bbbe 71a4 2bbf
00000130: a5ef 6abf eac0 453f 4177 c4be 62c1 0bbe
00000140: be69 cebe fcd7 e4bc 0737 4f3f e2f6 13bf
00000150: fe2f b2be 6358 26bf dc08 eabe 2a6f f0be
00000160: 5460 463f 2abd b3be 7927 83bf a0e1 bfbe
00000170: e10f 44be ab9b dfbe 78e7 67bf bac4 f33e
00000180: f9c1 86bc 9e61 b0be 5e31 563f 601e 5b3f
00000190: 7764 70be 1e9c 9fbe ecf2 bbbf 6f0e 9a3f
000001a0: 4885 6cbf bb72 a2bf e3cf 393f fe01 2cbf
000001b0: 0917 113f d491 593f 896c e5bf 1967 1bbf
000001c0: c297 b8be 55b9 d4be 711c 21bf a368 31bf
000001d0: c4e8 93bf 0a13 01bf 9c9d dcbd 4e29 c9be
000001e0: 7de7 a4be c448 18bf 0cbf b7bf fe5d 593f
000001f0: 7d3c 7dbe 64d0 26be 92a7 0e3e 8384 66bf

network.2.weight f4 [64, 128]
0.24707285 0.28582084 0.17457078 0.093801506 0.022812767 0.38263097 0.2190854 0.3043214
-0.20378171 0.084583245 0.13290963 0.09099692 0.377686 0.20109868 0.04059437 -0.008269949
0.24597509 0.045136582 -0.023819793 0.37852877 -0.36655632 0.203034 -0.08372794 0.39322916
0.3569094 0.01812675 0.03681907 0.23239966 -0.025342325 -0.07980266 0.012138177 0.053675927
-0.050388142 -0.056566767 -0.29315156 -0.10660737 0.24650294 -0.14354932 0.11932875 0.3104034
0.07588594 -0.06941999 -0.08267291 -0.22681089 0.294779 0.04659976 0.09332788 0.059634265
0.12657046 -0.047837 0.085867345 0.102901846 -0.017764645 -0.043093435 -0.29151112 -0.04897177
0.13573134 0.47788835 -0.15977049 -0.3505655 -0.20955148 0.033538945 0.56148756 -0.06747974
0.001141285 0.14624435 0.25479117 0.051982693 0.53371876 -0.0045268587 0.18399124 -0.007723443
0.16740648 0.3142676 -0.20815988 -0.18987614 -0.3406047 0.11451099 0.19094418 -0.26110893
0.0831279 0.06796332 0.309241 -0.25914222 -0.14979978 0.11893779 -0.08727082 -0.17965391
0.16093285 -0.050379902 -0.115427285 -0.27858502 0.16079946 0.02044602 0.038151607 0.14875253
0.13386407 -0.069378756 0.18307078 0.16137561 -0.0016651187 -0.09774908 -0.06847403 0.30812722
-0.5176302 -0.12263728 0.15969892 -0.14767233 -0.016084012 0.15768544 -0.43129653 -0.50249135
-0.038959466 0.13178225 0.45559454 -0.39966774 0.11903141 -0.300697 0.041248422 -0.52694637
0.012497315 0.024670856 -0.4468484 0.31605363 -0.0013816819 0.092187546 0.17695771 0.11920442
0.04515144 -0.13231446 -0.076561324 -0.099069975 -0.09441647 0.045740087 -0.0012558287 -0.032886803
-0.12235479 -0.5148207 -0.14576855 -0.17453444 0.024263132 0.06981143 -0.10532516 -0.04634134
-0.23798713 -0.0013657924 -0.50471604 -0.0045007933 -0.2391189 0.13289388 -0.18245815 0.33090276
-0.07748355 0.11507832 -0.07033747 -0.22007982 -0.103206985 -0.40234417 0.3232382 -0.009833347
-0.15215668 -0.1474757 -0.37362826 -0.13002677 -0.10487534 -0.2029672 0.10317796 -0.065958224
-0.08681484 -0.2904865 -0.017451799 -0.48366442 -0.48569798 -0.17330725 -0.06827816 -0.5188771
-0.38854697 0.019436702 0.005512679 -0.08775912 0.19500327 -0.025267143 0.22684778 -0.3354834
-0.039811343 0.25029248 -0.25546885 -0.23163351 -0.48665985 -0.033717602 0.14043704 -0.38526514
-0.4128645 0.028658926 -0.16956247 -0.1278214 0.3304539 -0.09730128 -0.439632 -0.14149816
-0.14943342 0.18036085 -0.17205957 -0.06638271 -0.113609545 -0.04849566 -0.20450342 -0.083818704
0.09705996 -0.12278299 -0.020445554 0.057352867 -0.19850291 -0.04374379 -0.023958558 -0.3540208
-0.16023694 -0.18435034 -0.28456444 -0.111569 0.33394268 -0.14435454 -0.20841584 0.010156462
-0.08516218 0.0053500813 0.061937 -0.06890255 -0.004535894 -0.35329157 -0.0823882 0.044956848
-0.22293937 0.08793125 -0.42036816 0.13695636 -0.31665915 -0.081644006 -0.22916597 0.05085111
-0.010697975 -0.016734041 -0.16038176 0.03914351 -0.041276466 -0.040924896 -0.1240282 -0.048612818
0.3392709 -0.041966785 0.012314021 -0.6716157 0.4439291 0.071805656 -0.19693097 0.19278497
00000000: aa00 7d3e 1c57 923e afc2 323e 011b c03d
00000010: d7e1 ba3c 35e8 c33e ec57 603e 04d0 9b3e
00000020: 27ac 50be fb39 ad3d 7619 083e 985c ba3d
00000030: 0f60 c13e d0ec 4d3e 4846 263d ae7e 07bc
00000040: e5e0 7b3e 23e1 383d ba21 c3bc 86ce c13e
00000050: 45ad bbbe 25e8 4f3e 8e79 abbd 5555 c93e
00000060: d4bc b63e 8d7e 943c 98cf 163d 2dfa 6d3e
00000070: b59a cfbc 946f a3bd 34df 463c 4adb 5b3d
00000080: cc63 4ebd 8eb2 67bd f617 96be f754 dabd
00000090: 446b 7c3e 98fe 12be a262 f43d 32ed 9e3e
000000a0: 166a 9b3d 112c 8ebd 6a50 a9bd 1d41 68be
000000b0: 46ed 963e 64df 3e3d b022 bf3d 0f43 743d
000000c0: b09b 013e bbf0 43bd 38db af3d 34be d23d
000000d0: 2987 91bc be82 30bd f240 95be 9f96 48bd
000000e0: 28fd 0a3e c8ad f43e e09a 23be 527d b3be
000000f0: aa94 56be 2260 093d a6bd 0f3f d132 8abd
00000100: 2c97 953a 14c1 153e fd73 823e ceeb 543d
00000110: cba1 083f 0b56 94bb 3368 3c3e f014 fdbb
00000120: 9b6c 2b3e afe7 a03e dd27 55be e46e 42be
00000130: bd63 aebe bd84 ea3d df86 433e 12b0 85be
00000140: f63e aa3d 5a30 8b3d d654 9e3e 4aae 84be
00000150: 1d65 19be a895 f33d 0bbb b2bd 32f7 37be
00000160: 95cb 243e 285b 4ebd 2465 ecbd b2a2 8ebe
00000170: 9da8 243e 697e a73c dc44 1c3d 9552 183e
00000180: aa13 093e 7316 8ebd e876 3b3e a63f 253e
00000190: 1d40 daba ab30 c8bd 1d3c 8cbd dac2 9d3e
000001a0: 6a83 04bf 4129 fbbd 1d88 233e 6a37 17be
000001b0: 9ec2 83bc 4b78 213e e6d2 dcbe 46a3 00bf
000001c0: f693 1fbd edf1 063e b043 e93e 40a1 ccbe
000001d0: bdc6 f33d f5f4 99be 1bf4 283d f5e5 06bf
000001e0: 8ac1 4c3c 891a ca3c 50c9 e4be c8d1 a13e
000001f0: 8d19 b5ba d3cc bc3d 6734 353e 7221 f43d
00000200: b7f0 383d 717d 07be 2fcc 9cbd 33e5 cabd
00000210: 6c5d c1bd f559 3b3d 9e9a a4ba 50b4 06bd
00000220: 2695 fabd 4acb 03bf 5a44 15be 28b9 32be
00000230: 7ac3 c63c 4cf9 8e3d b8b4 d7bd 6bd0 3dbd
00000240: e6b2 73be 6304 b3ba 1235 01bf 647b 93bb
00000250: 96db 74be 5515 083e 4fd6 3abe 166c a93e
00000260: b2af 9ebd 2fae eb3d 170d 90bd 9b5c 61be
00000270: 2f5e d3bd 0e00 cebe 7a7f a53e 0c1c 21bc
00000280: f6ce 1bbe df03 17be 344c bfbe bd25 05be
00000290: e2c8 d6bd a2d6 4fbe f74e d33d 1b15 87bd
000002a0: fbcb b1bd a6ba 94be 13f7 8ebc dda2 f7be
000002b0: 68ad f8be 7577 31be 6cd5 8bbd 21d5 04bf
000002c0: a1ef c6be b839 9f3c b4a3 b43b 0ebb b3bd
000002d0: f0ae 473e 0afd cebc c94a 683e 7bc4 abbe
000002e0: 3811 23bd 5626 803e d0cc 82be 5631 6dbe
000002f0: 7b2b f9be 781b 0abd bace 0f3e 7941 c5be
00000300: fa62 d3be 20c6 ea3c c9a1 2dbe 9de3 02be
00000310: 4131 a93e e545 c7bd 7217 e1be e5e4 10be
00000320: 1305 19be 84b0 383e 6230 30be a9f3 87bd
00000330: 1fac e8bd 63a3 46bd 5869 51be 24a9 abbd
00000340: 5fc7 c63d a675 fbbd 6f7d a7bc d7ea 6a3d
00000350: 5944 4bbe b02c 33bd bd44 c4bc 3742 b5be
00000360: 2715 24be 56c6 3cbe 6eb2 91be 4a7e e4bd
00000370: 89fa aa3e add1 13be f66a 55be 4a67 263c
00000380: 8269 aebd bc4f af3b a7b1 7d3d c81c 8dbd
00000390: d6a1 94bb a2e2 b4be 25bb a8bd ac24 383d
000003a0: 384a 64be 4d15 b43d 7f3a d7be 4a3e 0c3e
000003b0: 2621 a2be f934 a7bd 7caa 6abe 4149 503d
000003c0: 8f46 2fbc d415 89bc 1e3b 24be f254 203d
000003d0: 8311 29bd dda0 27bd 7f02 febd 3c1e 47bd
000003e0: eab4 ad3e 5de5 2bbd bfc0 493c 02ef 2bbf
000003f0: ad4a e33e d80e 933d 46a8 49be 6c69 453e

network.2.bias f4 [64]
0.93990713 0.74238 -0.025639806 -0.174244 -0.07208594 1.027232 0.017222296 0.70554376
0.0072503597 -0.014623483 0.55482376 -0.14845057 1.362631 -0.025514081 -0.076960005 0.43861023
-0.054730665 1.0743259 0.057602476 -0.072282024 0.6718288 0.4690698 0.9153738 0.8091888
0.7750111 0.02192921 1.1272048 1.0456969 0.02033354 -0.06468136 0.84301966 0.8016973
-0.105568685 1.3053286 0.32196236 0.9634026 -0.10301499 0.53568935 -0.123949595 -0.10057588
0.76192826 0.5501896 0.8432371 -0.0934581 0.9018509 -0.09988346 0.76958966 1.3008609
-0.029253365 0.9203419 0.867992 0.9292669 0.3785888 -0.040198967 -0.2617333 0.0058410317
1.250243 0.73520184 0.822303 1.0405133 1.4829943 -0.10564026 1.2199591 0.02927734
00000000: c19d 703f 9e0c 3e3f 920a d2bc 056d 32be
00000010: cba1 93bd 577c 833f c615 8d3c 849e 343f
00000020: 6d94 ed3b 5597 6fbc ee08 0e3f 6d03 18be
00000030: b16a ae3f e802 d1bc 359d 9dbd 8591 e03e
00000040: 432d 60bd 8383 893f 93f0 6b3d 9908 94bd
00000050: f9fc 2b3f eb29 f03e f055 6a3f ff26 4f3f
00000060: 2167 463f e3a4 b33c 3f48 903f 65d9 853f
00000070: 8692 a63c a977 84bd 23d0 573f 093c 4d3f
00000080: 6534 d8bd 0215 a73f 40d8 a43e 8ea1 763f
00000090: 86f9 d2bd f022 093f 49d9 fdbd bafa cdbd
000000a0: bb0d 433f 3ad9 0c3f 63de 573f f666 bfbd
000000b0: b3df 663f b38f ccbd d403 453f 9c82 a63f
000000c0: c1a4 efbc 879b 6b3f b934 5e3f 70e4 6d3f
000000d0: 64d6 c13e aca7 24bd e801 86be 2066 bf3b
000000e0: f607 a03f 3036 3c3f 7382 523f 8a2f 853f
000000f0: c2d2 bd3f ec59 d8bd 9f27 9c3f 08d7 ef3c

network.4.weight f4 [4, 64]
0.13667522 0.23115568 0.04478273 0.04679322 -0.057584368 0.398907 -0.010342291 0.26377526
0.005042667 0.045874532 -0.1719407 0.0027776165 0.13287117 0.05970254 0.08625305 0.011274722
-0.084556796 0.28443995 -0.079445384 -0.079173714 0.122490354 0.27833685 0.20509954 0.28558618
0.26337814 0.19811907 -0.09179309 0.18959476 0.029642615 0.069387555 0.2854946 0.3529076
0.017563662 0.09164867 -0.22317511 0.11421391 0.09223567 0.14811009 0.09047114 -0.084782295
0.1398412 0.07763099 0.060880758 0.084086 0.1784083 0.07138764 0.10863829 0.11609511
-0.06330599 0.063625336 0.0925328 -0.06689183 0.40990302 -0.11720434 0.05016511 0.05467433
0.08046511 0.33202246 0.25288668 0.24734458 0.44312802 0.008829888 0.20309372 0.08765143
0.19022441 0.18211079 0.024514228 -0.015854513 0.046694066 0.2859018 0.05469668 0.13456848
0.010099149 -0.023719938 0.45112953 -0.07083441 0.15465295 -0.078940585 -0.043337792 0.06809061
-0.10291156 0.28564984 0.11690133 -0.06296344 -0.06631593 0.82326573 0.101841375 0.22394477
0.73593086 -0.0034044674 0.004963594 0.31131417 0.056187104 0.03487453 0.19162396 0.12734649
-0.010984827 0.21175373 0.15279658 0.1457464 0.031376928 -0.018504024 0.004485451 0.008536902
0.17817836 0.0321564 0.10852511 0.11454907 0.22848621 0.0171866 0.056373518 0.25462872
-0.059232347 0.062506095 0.08944074 0.10910905 0.018784089 -0.015392121 -0.15599667 0.10038487
0.15901515 0.10335927 0.15922767 0.30894196 0.17600818 0.01711493 0.16854638 -0.043099266
0.41787583 0.110139176 -0.0807382 0.0067176265 0.011487241 0.30496433 -0.017693691 0.14336552
-0.0047327 -0.031136934 -0.04413394 -0.13937482 0.1706005 -0.031284377 -0.020088503 -0.061600275
0.04228757 0.23510025 -0.0290894 0.07469119 -0.06942812 0.92448837 0.08259749 0.18021742
0.36630696 -0.03848021 0.11246769 0.2481858 -0.082378276 -0.048189737 0.17298448 0.10010799
0.024838895 0.16377023 -0.016441425 0.1901431 -0.06804639 0.004722836 -0.0021483346 -0.02542938
0.104121864 0.008774315 0.1151347 0.05387002 0.18665402 -0.0059418827 0.1667265 0.249337
-0.063045524 0.046755455 0.14073002 0.011395215 0.00046122185 0.01269047 -0.12480867 -0.044672623
0.1425026 0.0929994 0.23586234 0.2626973 0.22519718 -0.07259655 0.14665468 -0.038730636
0.23566556 0.048758835 0.02674714 0.012790624 -0.11787293 0.29422498 0.09923913 0.18412942
-0.05648795 0.05123163 0.34820643 0.09284815 0.1259648 0.10049994 -0.06884122 -0.016681446
-0.06514385 0.31741002 0.036817137 0.00097450614 0.16230103 0.9258006 0.08531626 0.19626969
0.2764681 0.014653698 0.041885667 0.27818722 -0.0033262065 -0.11838716 0.19371335 0.14051552
0.07520566 0.14629042 0.009891957 0.0030169492 0.0932397 -0.030214395 0.06660985 -0.048563853
0.15472062 0.023828685 0.1786466 0.046400573 0.19823244 -0.045606602 0.14888753 0.23612621
-0.06746729 0.06885212 0.18943971 -0.0014781167 -0.004141676 0.0056397254 0.0847476 0.019962415
0.14074588 0.088810265 0.21289814 0.21815214 0.17970559 -0.099309385 0.18657276 0.028688785
00000000: 97f4 0b3e 13b4 6c3e 196e 373d 3faa 3f3d
00000010: 96dd 6bbd 8a3d cc3e b672 29bc 8d0d 873e
00000020: f53c a53b efe6 3b3d 3911 30be ac08 363b
00000030: 610f 083e a78a 743d 70a5 b03d 9db9 383c
00000040: 1d2c adbd 1da2 913e 43b4 a2bd d425 a2bd
00000050: 39dc fa3d 2b82 8e3e 9d05 523e 5a38 923e
00000060: 80d9 863e badf 4a3e 04fe bbbd 2125 423e
00000070: 12d5 f23c 101b 8e3d 592c 923e 4eb0 b43e
00000080: abe1 8f3c 4cb2 bb3d 0488 64be fce8 e93d
00000090: 0ee6 bc3d 2caa 173e ef48 b93d 57a2 adbd
000000a0: 8832 0f3e fffc 9e3d 1a5e 793d 4835 ac3d
000000b0: aab0 363e af33 923d c07d de3d 46c3 ed3d
000000c0: 92a6 81bd 004e 823d d681 bd3d 95fe 88bd
000000d0: cfde d13e d408 f0bd ee79 4d3d 31f2 5f3d
000000e0: e4ca a43d d9fe a93e 5d7a 813e e647 7d3e
000000f0: ade1 e23e 3cab 103c cdf7 4f3e 9882 b33d
00000100: 30ca 423e 407b 3a3e 10d2 c83c 53e1 81bc
00000110: 4742 3f3d b961 923e a009 603d 52cc 093e
00000120: e776 253c 5150 c2bc 73fa e63e a211 91bd
00000130: 585d 1e3e 9aab a1bd f882 31bd 1773 8b3d
00000140: 4cc3 d2bd b240 923e f769 ef3d faf2 80bd
00000150: a5d0 87bd 8bc1 523f 3692 d03d c751 653e
00000160: f765 3c3f 7c1d 5fbb a5a5 a23b 9264 9f3e
00000170: 7324 663d 98d8 0e3d 1239 443e 1e67 023e
00000180: b4f9 33bc f8d5 583e b576 1c3e 8b3e 153e
00000190: 1885 003d c095 97bc b1fa 923b 5dde 0b3c
000001a0: 6374 363e 6eb6 033d 6a42 de3d b498 ea3d
000001b0: 4af8 693e eaca 8c3c ebe7 663d b25e 823e
000001c0: 9e9d 72bd 3203 803d b52c b73d 9174 df3d
000001d0: 17e1 993c 3c2f 7cbc 97bd 1fbe 9596 cd3d
000001e0: ded4 223e 06ae d33d 940c 233e a42d 9e3e
000001f0: 7d3b 343e 9c34 8c3c 6c97 2c3e db88 30bd
00000200: d2f3 d53e a690 e13d 125a a5bd 891f dc3b
00000210: fb34 3c3c 4924 9c3e 5cf2 90bc 69ce 123e
00000220: c414 9bbb e212 ffbc cac5 34bd 46b8 0ebe
00000230: e6b1 2e3e 0c24 00bd a590 a4bc 9250 7cbd
00000240: bb35 2d3d 1fbe 703e e54c eebc b2f7 983d
00000250: 5530 8ebd 45ab 6c3f df28 a93d ea8a 383e
00000260: 968c bb3e 6d9d 1dbd 7655 e63d 6b24 7e3e
00000270: f1b5 a8bd 9a62 45bd d822 313e 6b05 cd3d
00000280: f07a cb3c 62b3 273e 2bb0 86bc dfb4 423e
00000290: e85b 8bbd 05c2 9a3b 13cb 0cbb 4651 d0bc
000002a0: d83d d53d 25c2 0f3c becb eb3d cfa6 5c3d
000002b0: 3b22 3f3e 20b4 c2bb 5aba 2a3e 3352 7f3e
000002c0: 031e 81bd a682 3f3d 881b 103e ffb2 3a3c
000002d0: 26d0 f139 b0eb 4f3c b09b ffbd a4fa 36bd
000002e0: 34ec 113e 7876 be3d e685 713e 4380 863e
000002f0: 179a 663e 80ad 94bd a52c 163e 04a4 1ebd
00000300: 5052 713e 58b7 473d d11c db3c c48f 513c
00000310: 5d67 f1bd a8a4 963e e33d cb3d 6c8c 3c3e
00000320: e95f 67bd 42d8 513d 1d48 b23e 2c27 be3d
00000330: ebfc 003e ead2 cd3d a0fc 8cbd 87a7 88bc
00000340: 246a 85bd 9183 a23e 91cd 163d 0076 7f3a
00000350: 3e32 263e 4501 6d3f 4bba ae3d ecfa 483e
00000360: 3a8d 8d3e 1016 703c 4e90 2b3d 8e6e 8e3e
00000370: 7cfc 59bb f874 f2bd cb5c 463e 4de3 0f3e
00000380: 6d05 9a3d 28cd 153e e011 223c 02b8 453b
00000390: 75f4 be3d 2e84 f7bc bf6a 883d e4ea 46bd
000003a0: 156f 1e3e 6034 c33c 22ef 363e 870e 3e3d
000003b0: 72fd 4a3e fdcd 3abd f975 183e 12cb 713e
000003c0: 4a2c 8abd 5702 8d3d 7cfc 413e 5ebd c1ba
000003d0: e5b6 87bb 72cd b83b 2690 ad3d 3888 a33c
000003e0: b01f 103e 28e2 b53d f801 5a3e 4663 5f3e
000003f0: be04 383e b862 cbbd ee0c 3f3e be04 eb3c

network.4.bias f4 [4]
0.28229025 1.1661804 1.0221032 0.96333236
00000000: 5988 903e 6645 953f 47d4 823f f39c 763f
