backend/models/traffic_autoencoder.pt (torch, 35762 bytes, 12 tensors)

encoder.0.weight f4 [64, 19]
0.1593909 0.030327087 -0.18180543 0.11999853 0.00041270314 -0.20832072 -0.146919 -0.028580187
-0.09535141 -0.15462232 0.1906509 0.06266306 -0.22593161 0.045238063 -0.07294914 -0.23638315
-0.21252652 -0.24506924 0.16661641 0.07117325 -0.075843625 0.066481546 -0.11638981 0.042762626
0.05442307 0.11704999 0.21173981 -0.10817001 -0.19244288 0.14484122 0.1927818 -0.15589829
0.11138959 -0.030659616 -0.09593572 0.004331822 -0.12986651 -0.18109156 -0.14191808 0.05298867
-0.27642483 0.038033295 0.027971294 -0.18775707 0.07122376 -0.15825903 0.0400086 -0.13201584
-0.023541119 0.09622876 -0.09206702 0.10797621 0.14707081 0.024688398 -0.073358275 -0.11626803
-0.09722867 0.23572466 -0.07129825 -0.15588117 -0.16419919 -0.06020233 0.08235563 -0.16221799
0.2261524 0.08744105 -0.12811254 -0.16072136 0.117978446 -0.11654779 0.26796097 -0.15843615
0.18966381 0.23859732 -0.013081528 -0.09057151 -0.2644015 -0.06043966 0.07478205 -0.08584993
0.020623928 0.2278119 0.11979148 -0.13842261 0.025421366 -0.038749322 -0.24558273 -0.04913448
-0.20229216 -0.042482793 -0.06854352 -0.18155001 0.04239727 -0.27981508 -0.15099588 0.17067069
-0.0063189985 -0.036467295 -0.19435515 -0.22125089 -0.07538251 0.042483624 -0.0982639 0.23224546
0.12610984 -0.0844838 0.16165301 -0.18569526 0.15655355 0.09703031 -0.056917496 -0.20158425
0.14827803 -0.008881653 0.039843738 -0.15579425 -0.118279405 -0.110700086 -0.08357445 -0.07704003
-0.23535778 -0.025344975 -0.16987409 0.02147311 0.04823795 0.096401885 0.06930547 0.096682675
0.16929607 0.17762347 -0.24110764 -0.2150301 -0.077168815 0.0007743238 -0.057001203 -0.1271219
-0.21662623 0.13846104 -0.046066914 0.11346095 0.17341034 -0.23007852 -0.24517936 -0.05790197
0.10752117 -0.23572095 -0.19852287 0.15973754 0.14612485 -0.18935265 0.16589819 -0.11494855
-0.20837107 -0.2748578 -0.114501804 -0.22791524 0.06804617 0.059231315 0.025119182 -0.28110394
-0.033714227 -0.1691469 -0.2787864 -0.24968664 0.011139612 -0.14431787 0.0875435 0.008995427
0.008147811 0.13067101 -0.15701436 -0.1626348 -0.2791299 -0.04696201 -0.15806131 -0.107642144
0.052923057 -0.27526563 -0.2378983 -0.12305766 -0.112760834 -0.27982688 -0.04176881 -0.27644297
0.07450061 -0.056158658 0.10319626 -0.21531859 0.10875748 -0.15976332 0.17257534 0.16382854
-0.14872107 0.17567554 -0.11269092 0.21711342 -0.22502261 -0.11175931 0.19596061 -0.16557376
-0.095436625 -0.23047847 0.071287096 0.1695678 0.1424136 -0.027814548 0.1681647 -0.090120584
0.17268865 -0.23721242 0.0017570998 -0.25598007 -0.05816762 -0.20201282 -0.059855167 0.19776328
-0.0017789429 -0.2829084 -0.1488627 -0.26485604 0.11956455 0.1284978 0.082721956 -0.019767664
-0.21197307 -0.15998419 0.12776804 -0.0018581689 -0.19159079 0.21786766 0.0019600624 -0.13550954
0.0121248085 -0.123072915 -0.1827798 0.14422105 0.1942215 -0.17697558 -0.08641353 -0.17377847
0.04795098 -0.018254654 -0.017384294 0.06552482 0.10883278 0.07285851 0.040961094 -0.026508378
-0.03301614 0.03789316 -0.24986677 0.031156376 -0.17498353 -0.15290731 -0.08149391 -0.11249581
00000000: 5e37 233e 8370 f83c 342b 3abe cac1 f53d
00000010: 1460 d839 0752 55be ef71 16be ff20 eabc
00000020: 9a47 c3bd 5055 1ebe fd39 433e 7e55 803d
00000030: 9e5a 67be 8c4b 393d 5c66 95bd 6d0e 72be
00000040: 8da0 59be 6ef3 7abe 7e9d 2a3e 48c3 913d
00000050: e753 9bbd 7a27 883d c85d eebd dd27 2f3d
00000060: baea 5e3d e8b7 ef3d 52d2 583e 3d88 ddbd
00000070: bf0f 45be 4251 143e 9868 453e cda3 1fbe
00000080: 3a20 e43d e029 fbbc f279 c4bd f5f1 8d3b
00000090: bafb 04be 1170 39be f952 11be a60a 593d
000000a0: 8e87 8dbe cdc8 1b3d 0e24 e53c 6443 40be
000000b0: c3dd 913d a80e 22be 0fe0 233d 292f 07be
000000c0: 4ed9 c0bc 9613 c53d a28d bcbd a222 dd3d
000000d0: bb99 163e 533f ca3c dd3c 96bd ef1d eebd
000000e0: d31f c7bd ce61 713e d104 92bd 509f 1fbe
000000f0: d523 28be b896 76bd 12aa a83d 791c 26be
00000100: 7f94 673e 4b14 b33d ef2f 03be 2494 24be
00000110: af9e f13d 9cb0 eebd 2e32 893e 163d 22be
00000120: 3b37 423e db52 743e e853 56bc 8e7d b9bd
00000130: a25f 87be 948f 77bd 5527 993d 17d2 afbd
00000140: 83f3 a83c 8647 693e 3c55 f53d a8be 0dbe
00000150: 7840 d03c 9cb7 1ebd 0a7a 7bbe 3d41 49bd
00000160: ad25 4fbe 7002 2ebd 8c60 8cbd 3fe8 39be
00000170: c3a8 2d3d ec43 8fbe aa9e 1abe 4cc4 2e3e
00000180: 9a0f cfbb bb5e 15bd 0905 47be 988f 62be
00000190: 2562 9abd 4f03 2e3d 953e c9bd c1d1 6d3e
000001a0: f022 013e d805 adbd 5e88 253e e626 3ebe
000001b0: 934f 203e d4b7 c63d 5222 69bd 1a6c 4ebe
000001c0: 32d6 173e 5a84 11bc 3033 233d 8788 1fbe
000001d0: 793c f2bd bab6 e2bd 1529 abbd 2ac7 9dbd
000001e0: a101 71be 44a0 cfbc 79f3 2dbe 60e8 af3c
000001f0: 2895 453d 5a6e c53d 07f0 8d3d 9101 c63d
00000200: f35b 2d3e ede2 353e ece4 76be da30 5cbe
00000210: af0a 9ebd fefb 4a3a 187a 69bd 3e2c 02be
00000220: 44d3 5dbe bbc8 0d3e a9b0 3cbd 375e e83d
00000230: 7b92 313e b499 6bbe 4c10 7bbe 9e2a 6dbd
00000240: 0f34 dc3d d560 71be 9449 4bbe 3d92 233e
00000250: c1a1 153e a9e5 41be 37e1 293e 256a ebbd
00000260: 3a5f 55be 29ba 8cbe ec7f eabd 9d62 69be
00000270: ca5b 8b3d 899c 723d bec6 cd3c dbec 8fbe
00000280: ee17 0abd d834 2dbe 17bd 8ebe dbad 7fbe
00000290: eb82 363c 10c8 13be 024a b33d 8e61 133c
000002a0: 657e 053c 9fce 053e 5fc8 20be bd89 26be
000002b0: 1dea 8ebe 3d5b 40bd d3da 21be 7c73 dcbd
000002c0: d9c5 583d 9eef 8cbe 9d9b 73be a805 fcbd
000002d0: 27ef e6bd 7845 8fbe c615 2bbd ef89 8dbe
000002e0: c793 983d 9f06 66bd 9058 d33d 7a7c 5cbe
000002f0: 3ebc de3d ff98 23be 97b7 303e abc2 273e
00000300: 564a 18be 4ae4 333e 7fca e6bd fb52 5e3e
00000310: 546c 66be 11e2 e4bd e6a9 483e 2b8c 29be
00000320: 4774 c3bd 8c02 6cbe f8fe 913d 2ea3 2d3e
00000330: dfd4 113e 56db e3bc 5e33 2c3e 2491 b8bd
00000340: 4bd5 303e d0e7 72be 7c4e e63a d20f 83be
00000350: 2c41 6ebd 73dc 4ebe b12a 75bd 7582 4a3e
00000360: 6b2b e9ba 5fd9 90be 776f 18be 369b 87be
00000370: 42de f43d ed94 033e 216a a93d ccef a1bc
00000380: 780f 59be e5d2 23be a0d5 023e cd8d f3ba
00000390: 6030 44be b318 5f3e 6474 003b 03c3 0abe
000003a0: 22a7 463c a70d fcbd a12a 3bbe afae 133e
000003b0: 00e2 463e 1639 35be 94f9 b0bd fcf2 31be
000003c0: 3f68 443d c98a 95bc 8269 8ebc e031 863d
000003d0: b8e3 de3d d836 953d d2c6 273d 1928 d9bc
000003e0: ef3b 07bd dc35 1b3d 13dd 7fbe a83b ff3c
000003f0: e22e 33be bc93 1cbe 47e6 a6bd 3464 e6bd

encoder.0.bias f4 [64]
-0.11792611 0.045032363 0.22282478 0.108727604 0.0033109982 -0.024208745 0.1283147 0.1556341
0.19434097 -0.121590964 -0.03351515 0.19221099 0.052033495 0.21272795 -0.040767763 -0.06970866
-0.19180427 -0.0019882424 -0.26466212 0.21917579 0.058279168 -0.14430085 -0.074478574 -0.14105539
0.19974262 -0.023478651 -0.1385848 -0.15082878 0.11733879 -0.07244493 0.17213212 -0.10650063
-0.048409835 -0.13790597 0.062743254 0.25561514 -0.14877312 -0.111820534 0.16006593 0.14463952
0.2788886 0.1433308 0.057872754 0.17838797 0.28523815 0.030998373 0.034476645 -0.115544505
0.20599733 -0.13875458 -0.018646609 -0.1359558 -0.032162547 -0.18607081 -0.15917662 -0.023555575
0.26271036 -0.15563649 0.003243221 -0.21250719 -0.019205777 0.1977497 -0.032395322 0.049595833
00000000: 3f83 f1bd db73 383d 2e2c 643e 94ac de3d
00000010: 55fd 583b 6b51 c6bc ee64 033e 8c5e 1f3e
00000020: 5201 473e af04 f9bd 2f47 09bd f5d2 443e
00000030: 1321 553d 5bd5 593e 19fc 26bd 6ac3 8ebd
00000040: 5768 44be 2c4d 02bb cb81 87be 9e6f 603e
00000050: 23b6 6e3d 9ac3 13be 3988 98bd d370 10be
00000060: 5489 4c3e 4d56 c0bc 2ce9 0dbe dc72 1abe
00000070: 524f f03d 025e 94bd 6743 303e 011d dabd
00000080: 6449 46bd 3937 0dbe 897f 803d fddf 823e
00000090: fb57 18be 2a02 e5bd 53e8 233e 621c 143e
000000a0: 7dca 8e3e 4fc5 123e fb0b 6d3d 56ab 363e
000000b0: bc0a 923e 4df0 fd3c 6237 0d3d 99a2 ecbd
000000c0: f7f0 523e ae15 0ebe c6c0 98bc ff37 0bbe
000000d0: e0bc 03bd 5989 3ebe 32ff 22be 9ff7 c0bc
000000e0: f981 863e 2c5f 1fbe 388c 543b 7c9b 59be
000000f0: 6f55 9dbc e67e 4a3e f5b0 04bd 0025 4b3d

encoder.2.weight f4 [32, 64]
-0.0199176 0.1124758 0.015883304 0.07540351 -0.019070907 0.057703078 -0.03464572 -0.035795663
-0.03594718 0.020068482 0.023720933 0.058578886 -0.045657277 0.1055841 0.02100674 0.04916164
0.1264077 -0.053322252 0.12435279 -0.08126368 0.026898922 -0.050973367 0.0833153 0.053286467
0.068081714 -0.065209776 0.0021007706 0.14030048 -0.10685608 -0.100529656 -0.1278483 0.06707288
0.03068886 -0.050801072 0.12055124 -0.034445044 -0.07535176 -0.059083212 -0.034706492 -0.015529957
-0.12461527 0.010006122 0.10705746 -0.09729823 -0.057698343 -0.09146509 0.07535368 -0.035986334
-0.085437216 -0.08798075 0.11903151 0.041927975 -0.08082983 0.110204935 0.13180992 -0.02534559
-0.066264845 0.05318493 0.111013226 -0.056837466 -0.06595951 0.034995917 -0.06306164 0.06690075
-0.01821075 0.08005418 0.06141648 0.051356383 -0.042355478 -0.040242914 0.100008115 0.022691298
-0.06565259 -0.06474682 -0.08072328 0.028013539 0.03664816 0.017625596 -0.09251353 0.07623951
0.03875831 -0.02805958 0.023303526 -0.022301586 -0.05110188 -0.0076735783 -0.018567178 -0.056127682
0.037654128 0.12788154 -0.056160197 -0.10269477 0.121447064 0.086360894 0.02289478 -0.07493573
0.056710254 0.08409099 0.05653488 -0.022193082 0.07578359 0.0119390385 0.07069019 0.106423415
-0.062853575 -0.008975045 0.001427839 0.072918646 -0.054838307 -0.057406727 0.053583924 -0.10447896
-0.113936715 0.06978975 0.11864575 0.0006389419 0.07606422 0.094609305 -0.06927214 0.11502378
-0.13081537 -0.039478976 0.117993854 -0.01084134 0.0709269 -0.08333093 -0.040154573 -0.08130516
0.10471627 0.018027857 0.028317505 -0.04177552 0.14897692 0.014453444 -0.026122017 0.16169007
-0.06723991 0.034097146 -0.040666994 0.026067507 0.03366705 -0.057480637 0.106426574 0.1404414
-0.037348002 -0.09335467 -0.09021417 0.15183543 0.08578449 0.06915978 0.083048776 -0.036464408
0.077567264 -0.07769858 0.08312054 -0.08515137 0.1653744 -0.06146391 -0.046738055 -0.06727615
0.075569764 0.05372017 -0.043280818 0.027573856 -0.16059558 0.039560508 0.04088285 0.11088919
0.035258878 0.08944733 -0.020335147 0.095259935 0.020510692 -0.10593762 -0.036266718 -0.023849988
-0.016201867 0.074545 0.10151981 -0.05568281 -0.058114562 -0.06854279 0.033791374 -0.031600557
-0.05060731 -0.01967695 -0.042984776 0.09318705 0.06528883 0.13087566 0.113548815 -0.054029025
0.01189547 0.13864538 0.06704035 0.021210019 -0.09964928 -0.06400873 0.059745267 0.09114739
-0.110849716 0.032494485 0.07711532 -0.009439891 0.03220068 -0.02464758 0.02685375 -0.15281938
-0.016707245 -0.008087119 0.061117284 0.15227248 -0.10332673 0.014290804 -0.0005716237 0.09940898
0.097137414 0.124132425 0.1551288 0.040438715 0.14094763 -0.024571449 -0.14513293 0.09022109
0.0659988 0.14666373 0.1357956 0.06615982 0.10656004 0.1276551 0.005509146 -0.10371827
-0.061355338 -0.060554463 0.16009028 -0.0681838 -0.03166945 0.015282771 0.10137872 0.09240474
-0.052786846 -0.0115233585 0.06295085 -0.07449653 0.11501614 -0.041116785 0.005158301 0.17160222
0.08303182 0.17570658 -0.034363616 -0.08156304 -0.13230155 -0.12302382 -0.07688029 0.028235987
00000000: 3c2a a3bc b659 e63d b41d 823c 286d 9a3d
00000010: 973a 9cbc 105a 6c3d ace8 0dbd 799e 12bd
00000020: 5a3d 13bd a866 a43c 6752 c23c 6af0 6f3d
00000030: 2003 3bbd 7a3c d83d 5416 ac3c b75d 493d
00000040: 0571 013e 6f68 5abd adac fe3d 926d a6bd
00000050: 215b dc3c 73c9 50bd 36a1 aa3d e942 5a3d
00000060: 6d6e 8b3d b48c 85bd 15ad 093b eeaa 0f3e
00000070: 5cd7 dabd 7ee2 cdbd aaea 02be 825d 893d
00000080: 3467 fb3c c914 50bd 92e3 f63d 3f16 0dbd
00000090: 0652 9abd 3d01 72bd 6528 0ebd 5c71 7ebc
000000a0: 4a36 ffbd b8f0 233c f140 db3d 4b44 c7bd
000000b0: 1955 6cbd 0d52 bbbd 0853 9a3d 6866 13bd
000000c0: b5f9 aebd 402f b4bd cbc6 f33d abbc 2b3d
000000d0: 1c8a a5bd 20b3 e13d 2ef9 063e 8ea1 cfbc
000000e0: ddb5 87bd 71d8 593d e75a e33d 67ce 68bd
000000f0: c815 87bd e157 0f3d 7626 81bd 4303 893d
00000100: b62e 95bc 72f3 a33d d98f 7b3d 125b 523d
00000110: f07c 2dbd c1d5 24bd 0ed1 cc3d 1ae3 b93c
00000120: dd74 86bd fb99 84bd 3f52 a5bd a67c e53c
00000130: 621c 163d 8e63 903c bc77 bdbd 7623 9c3d
00000140: 09c1 1e3d 34dd e5bc 09e7 be3c d1b1 b6bc
00000150: 3450 51bd a472 fbbb 321a 98bc 24e6 65bd
00000160: 373b 1a3d 61f3 023e 3c08 66bd a351 d2bd
00000170: 3db9 f83d fbdd b03d d58d bb3c e777 99bd
00000180: 0349 683d e637 ac3d 1e91 673d 44ce b5bc
00000190: 6d34 9b3d f59b 433c 05c6 903d 85f4 d93d
000001a0: 60b9 80bd 110c 13bc 5426 bb3a 5f56 953d
000001b0: 229e 60bd 5123 6bbd d17a 5b3d 11f9 d5bd
000001c0: a757 e9bd eeed 8e3d 8bfc f23d aa7e 273a
000001d0: 8fc7 9b3d 86c2 c13d 8dde 8dbd 9691 eb3d
000001e0: 77f4 05be b5b4 21bd c3a6 f13d e09f 31bc
000001f0: 1f42 913d 68a9 aabd 1f79 24bd 5283 a6bd
00000200: 7c75 d63d 28af 933c 1dfa e73c cf1c 2bbd
00000210: 688d 183e 23ce 6c3c d7fd d5bc 1592 253e
00000220: 14b5 89bd 73a9 0b3d 6f92 26bd 868b d53c
00000230: 76e6 093d d170 6bbd 2df6 d93d dfcf 0f3e
00000240: 38fa 18bd bc30 bfbd 35c2 b8bd bf7a 1b3e
00000250: c7af af3d a5a3 8d3d 7a15 aa3d b45b 15bd
00000260: 96db 9e3d 6f20 9fbd 1a3b aa3d d763 aebd
00000270: e857 293e 95c1 7bbd 6770 3fbd 14c8 89bd
00000280: 52c4 9a3d ae09 5c3d 3a47 31bd 91e2 e13c
00000290: 2b73 24be 330a 223d c674 273d df19 e33d
000002a0: 9d6b 103d 2930 b73d e595 a6bc a417 c33d
000002b0: 0a06 a83c d3f5 d8bd 698c 14bd 0d61 c3bc
000002c0: c7b9 84bc 0dab 983d 9ee9 cf3d a813 64bd
000002d0: 8909 6ebd 2a60 8cbd d368 0a3d 966f 01bd
000002e0: 9c49 4fbd 8e31 a1bc ce10 30bd dad8 be3d
000002f0: 26b6 853d 4504 063e 488c e83d 8a4d 5dbd
00000300: 38e5 423c 0ef9 0d3e 734c 893d a2c0 ad3c
00000310: ec14 ccbd 0217 83bd 74b7 743d 7cab ba3d
00000320: 2d05 e3bd f018 053d a3ee 9d3d c6a9 1abc
00000330: dce4 033d b9e9 c9bc 65fc db3c af7c 1cbe
00000340: a2dd 88bc d67f 04bc 1e56 7a3d 51ed 1b3e
00000350: f79c d3bd fa23 6a3c 04d9 15ba ef96 cb3d
00000360: fbef c63d 2439 fe3d 16da 1e3e 11a3 253d
00000370: 9354 103e 104a c9bc ba9d 14be d6c5 b83d
00000380: 612a 873d 042f 163e 000e 0b3e cd7e 873d
00000390: 263c da3d 05b8 023e 1186 b43b 3f6a d4bd
000003a0: bc4f 7bbd f507 78bd b5ee 233e f3a3 8bbd
000003b0: d3b7 01bd 9664 7a3c a59f cf3d b23e bd3d
000003c0: 0537 58bd 78cc 3cbc 60ec 803d a391 98bd
000003d0: 958d eb3d 136a 28bd f706 a93b 7eb8 2f3e
000003e0: 960c aa3d 6dec 333e ddc0 0cbd 860a a7bd
000003f0: 0f7a 07be eaf3 fbbd 6a73 9dbd 284f e73c

encoder.2.bias f4 [32]
-0.031186197 -0.049631603 0.16843982 0.06466043 0.028843723 0.118095025 -0.010468337 0.1120251
-0.04169881 0.08608277 -0.122143485 -0.0006232434 0.15522222 0.1388597 -0.088777274 0.14411032
0.07684531 -0.08034647 -0.045698375 0.09388831 0.0775425 0.074162886 0.05673464 0.08782636
0.12353948 -0.00057596015 -0.05601099 0.116864614 -0.02451571 0.04605801 0.15761024 0.012455012
00000000: 327a ffbc 824a 4bbd 7d7b 2c3e b06c 843d
00000010: ac49 ec3c cedb f13d 6383 2bbc 6a6d e53d
00000020: 5fcc 2abd 2a4c b03d 5d26 fabd 2861 23ba
00000030: 93f2 1e3e 3d31 0e3e dcd0 b5bd a891 133e
00000040: 1361 9d3d b18c a4bd 382e 3bbd 8448 c03d
00000050: 9ace 9e3d b6e2 973d 9562 683d 4ede b33d
00000060: 4402 fd3d 08fc 16ba c86b 65bd b756 ef3d
00000070: 2cd5 c8bc 53a7 3c3d 9464 213e 1b10 4c3c

encoder.4.weight f4 [16, 32]
0.011742226 0.08380841 -0.11839526 -0.19124605 -0.105334744 -0.08586002 0.13645372 -0.005286019
-0.15663075 0.12864281 -0.16669251 0.2241301 0.15617362 -0.013342122 -0.030809253 0.15278459
0.14767781 -0.16002828 0.008075085 0.06790376 0.13810676 0.014709547 0.05006372 0.029062115
0.15888254 0.036179107 -0.10126171 0.21825533 0.004499818 0.13750364 -0.12526707 -0.020056555
-0.13401602 -0.13066661 0.22865175 0.12384706 0.022640245 0.16694668 0.21092871 -0.018069196
-0.08289226 -0.045551367 -0.06664046 -0.1261134 -0.055477295 0.10356556 -0.010064661 0.0517331
0.13263564 0.09802031 -0.13609618 0.096215285 -0.060715638 -0.09471974 0.21416615 0.03785938
0.034587234 -0.10249288 -0.04347414 0.08675258 0.026719397 0.18715982 0.20990217 0.0070873415
-0.028712222 -0.12535061 -0.0014638586 0.0011327413 -0.1458004 -0.17611668 0.007612045 0.022177827
0.041719668 -0.14369152 -0.12128695 0.027423786 -0.12320382 0.0692538 0.061096437 0.104485676
0.09239623 0.055580277 0.09505204 -0.18041855 0.037403632 0.088185474 -0.13111885 0.004743973
0.14536825 -0.06301928 -0.09313393 0.093461655 0.03090559 0.07161534 0.0800636 -0.120162115
-0.09564831 -0.04338867 -0.08296844 -0.18880305 -0.0427628 -0.09373119 0.109654106 -0.08506644
0.005225109 0.013857725 -0.031714723 0.10304358 0.045765013 -0.1752647 -0.057818327 0.11687476
-0.08511952 -0.1759348 -0.023269555 -0.009089554 -0.16698135 -0.17025071 -0.16113591 -0.12291197
0.061975535 -0.050840087 -0.09252244 -0.17022467 0.02082583 0.053121828 0.14303261 -0.09638504
-0.083375156 -0.055020697 -0.109546684 -0.03494511 -0.12316178 -0.11424262 0.13615863 -0.087918416
0.06605865 0.10615387 -0.05121179 -0.02554351 0.10358025 -0.029843025 -0.005907408 -0.09807852
-0.031599272 0.06418309 0.1051567 0.2005543 0.104109555 -0.086679205 -0.13005055 -0.1527183
-0.09400089 -0.11416553 -0.02811511 -0.12088729 -0.1294775 0.045599446 -0.12691942 0.06097957
-0.019937102 -0.14743154 0.13441972 -0.20476298 0.057372212 -0.009188315 0.20676273 0.21226236
0.14504863 0.072004795 0.10829472 0.048543453 0.20913985 0.15357426 -0.06620913 0.23496392
0.10599688 0.040791135 -0.19526574 0.22984967 0.13044295 -0.121855065 0.23675068 0.16043134
0.22485994 -0.055419747 0.16004695 0.21516551 0.19966047 0.11200113 0.13969882 -0.111352175
-0.15749513 -0.0077857077 0.16602187 -0.17408764 -0.048308298 0.11759476 0.095031604 0.1100453
-0.11131992 -0.0777093 -0.17366762 -0.12956832 0.021777362 -0.17537472 0.12724708 -0.06772092
0.029995918 0.069092974 -0.017675653 -0.07727129 0.05093038 -0.0382293 -0.055475347 -0.13202669
-0.084060855 0.031266257 0.09158994 0.055845156 -0.09265845 -0.11185497 0.14604802 -0.06268507
-0.11046625 -0.10737317 0.21062078 0.08885036 0.039485294 0.09112029 0.046231236 0.19279452
0.10745378 0.09854709 0.15565829 0.091853775 -0.11904554 0.15029831 -0.007545296 0.04504863
0.077640496 -0.19327186 -0.20829733 0.19797751 0.15841725 0.11971624 -0.0696031 0.20611301
0.017740663 0.14237468 0.15719545 -0.102328904 0.0012520686 0.1552548 0.10631546 0.037512384
00000000: 7762 403c bea3 ab3d 3779 f2bd 01d6 43be
00000010: beb9 d7bd 61d7 afbd 86ba 0b3e 5736 adbb
00000020: d063 20be f1ba 033e 71b1 2abe 5c82 653e
00000030: faeb 1f3e ea98 5abc b063 fcbc 9073 1c3e
00000040: da38 173e 74de 23be 5c4d 043c 2011 8b3d
00000050: dc6b 0d3e 5000 713c 9e0f 4d3d ac13 ee3c
00000060: 1bb2 223e 8b30 143d 4d62 cfbd 537e 5f3e
00000070: 3673 933b c1cd 0c3e 0346 00be a54d a4bc
00000080: 7f3b 09be 78cd 05be af23 6a3e 87a3 fd3d
00000090: 0978 b93c 12f4 2a3e b2fd 573e da05 94bc
000000a0: 6bc3 a9bd 1294 3abd cb7a 88bd df23 01be
000000b0: 293c 63bd 2e1a d43d 3fe6 24bc 16e6 533d
000000c0: a3d1 073e dfbe c83d cc5c 0bbe 850c c53d
000000d0: f6b0 78bd 6cfc c1bd 5f4e 5b3e 7012 1b3d
000000e0: 58ab 0d3d c9e7 d1bd f111 32bd 56ab b13d
000000f0: a3e2 da3c d3a6 3f3e 98f0 563e ee3c e83b
00000100: e535 ebbc e95b 00be f2de bfba 7e78 943a
00000110: b34c 15be ee57 34be 766e f93b 46ae b53c
00000120: 3ee2 2a3d df23 13be 4b65 f8bd d9a7 e03c
00000130: 4952 fcbd f0d4 8d3d 4240 7a3d 96fc d53d
00000140: 3c3a bd3d 25a8 633d a5aa c23d a4bf 38be
00000150: 8d34 193d 969a b43d 0544 06be 5473 9b3b
00000160: 6adb 143e 4110 81bd 00bd bebd d368 bf3d
00000170: b82d fd3c 10ab 923d 62f8 a33d 8e17 f6bd
00000180: 43e3 c3bd 51b8 31bd 5ceb a9bd 9655 41be
00000190: 0c28 2fbd 23f6 bfbd 5592 e03d 5037 aebd
000001a0: 6437 ab3b 830b 633c 4ce7 01bd 8308 d33d
000001b0: 1874 3b3d 9778 33be e9d2 6cbd 095c ef3d
000001c0: 2553 aebd 4128 34be cb9f bebc 5aec 14bc
000001d0: 29fd 2abe 3456 2ebe d000 25be 45b9 fbbd
000001e0: 0fda 7d3d b23d 50bd 687c bdbd 604f 2ebe
000001f0: ee9a aa3c 4696 593d 2477 123e 8565 c5bd
00000200: 98c0 aabd 625d 61bd 035a e0bd 9b22 0fbd
00000210: 3e3c fcbd 09f8 e9bd 2b6d 0b3e 920e b4bd
00000220: c249 873d 3367 d93d 74c3 51bd a040 d1bc
00000230: e221 d43d 5c79 f4bc ee92 c1bb 64dd c8bd
00000240: 3d6e 01bd 6d72 833d 655c d73d 1b5e 4d3e
00000250: 6437 d53d de84 b1bd f92b 05be 3062 1cbe
00000260: 8a83 c0bd 9ecf e9bd a951 e6bc c193 f7bd
00000270: c095 04be 7cc6 3a3d 2af7 01be b7c5 793d
00000280: 2253 a3bc 4bf8 16be 53a5 093e 63ad 51be
00000290: 20ff 6a3d 968a 16bc 9cb9 533e 4e5b 593e
000002a0: a187 143e 4077 933d 9fc9 dd3d 80d5 463d
000002b0: c228 563e 9242 1d3e a798 87bd 629a 703e
000002c0: e414 d93d 9b14 273d bef3 47be b65d 6b3e
000002d0: d692 053e 268f f9bd c56e 723e 1d48 243e
000002e0: af41 663e d1ff 62bd 59e3 233e 5954 5c3e
000002f0: cb73 4c3e d960 e53d 350d 0f3e 9c0c e4bd
00000300: 6746 21be 401f ffbb a301 2a3e 0844 32be
00000310: ecde 45bd 86d5 f03d ee9f c23d 6e5f e13d
00000320: b3fb e3bd 0e26 9fbd edd5 31be 8fad 04be
00000330: 7066 b23c 6e95 33be 0f4d 023e 44b1 8abd
00000340: 00ba f53c 9e80 8d3d 88cc 90bc 6940 9ebd
00000350: 609c 503d 5496 1cbd 1e3a 63bd 0132 07be
00000360: 1928 acbd 0c11 003d 8293 bb3d e4bd 643d
00000370: b7c3 bdbd 3814 e5bd 9d8d 153e 0861 80bd
00000380: 213c e2bd 77e6 dbbd f9ac 573e 2df7 b53d
00000390: 55bb 213d 469d ba3d f75c 3d3d ed6b 453e
000003a0: ba10 dc3d 0fd3 c93d e364 1f3e d51d bc3d
000003b0: 26ce f3bd cde7 193e 883e f7bb ea84 383d
000003c0: fb01 9f3d 0fe9 45be e54b 55be 9eba 4a3e
000003d0: 2238 223e ca2d f53d 128c 8ebd 4a0f 533e
000003e0: de54 913c abca 113e d8f7 203e d191 d1bd
000003f0: 731c a43a 1dfb 1e3e ebbb d93d 96a6 193d

encoder.4.bias f4 [16]
0.030568417 0.08029592 -0.11587765 -0.062339563 -0.11329961 0.21120557 -0.14292848 0.013371163
0.15254714 0.08539921 -0.13603592 -0.03274905 0.21360937 0.09491041 0.19793649 0.23500948
00000000: 9e6a fa3c 3072 a43d 4351 edbd c557 7fbd
00000010: a009 e8bd 4646 583e d85b 12be b912 5b3c
00000020: 5135 1c3e c8e5 ae3d 004d 0bbe de23 06bd
00000030: 6abc 5a3e 6460 c23d ddaf 4a3e 53a6 703e

decoder.0.weight f4 [32, 16]
0.013380781 -0.045470167 -0.03891154 -0.09409082 -0.21326448 -0.1592566 0.11003482 -0.058578927
0.2954247 0.114518315 0.0789081 0.15446952 -0.15508726 0.010532049 -0.019179648 -0.023284279
0.26237243 0.15793702 0.100186296 0.038138997 0.2408657 0.26031202 -0.18350086 0.047669552
0.21836299 -0.10023221 -0.25903365 -0.14561073 0.08105211 -0.21620856 -0.09607707 0.16612379
0.04891619 -0.14529386 -0.1446768 0.028642923 0.22191814 -0.10180816 -0.08024642 -0.24142772
0.0035295188 -0.2064713 0.077705145 0.118325084 0.06637299 -0.09442979 -0.06936711 -0.18252182
0.1280671 0.052234694 0.014191688 0.06918805 0.02616275 0.2972431 0.06893262 0.014282662
0.17090568 0.17299062 0.0267431 0.03737426 0.24680144 -0.174129 0.1438022 -0.0023912177
-0.105065845 0.22609048 0.16374214 0.12655552 -0.19989952 0.2308744 -0.03419918 -0.11891122
-0.00404948 0.05991279 -0.06291908 -0.06372989 -0.059356812 0.20917474 0.05400151 0.30426896
0.15766442 -0.0029500308 -0.25055933 0.12331399 -0.063435525 0.11032714 -0.08270368 0.2670094
0.28869408 0.29845023 -0.06920226 0.16983286 0.25594676 -0.14279036 0.009989786 -0.053646546
-0.00034644047 -0.20080784 -0.009196736 0.15256062 0.16882256 -0.22634943 0.21618056 -0.26404542
0.24572565 0.030278541 -0.057814088 0.16511352 0.0013441917 -0.13224761 0.24584611 0.20565791
0.09743697 0.03302955 -0.11605882 -0.025720458 -0.1222869 0.043974295 -0.20773172 -0.038399793
0.24970314 -0.13743392 0.011944046 0.22628288 -0.14057435 0.14157544 0.072470516 -0.20578472
-0.2443625 -0.1665443 0.013390454 0.06385285 0.23494193 -0.17202555 0.14421684 0.0822339
-0.07642099 0.1659333 0.17616002 -0.19237942 0.21171401 0.048044305 -0.22596686 0.18081266
-0.15195487 0.0006382429 -0.02123187 0.13198775 0.019847507 0.03407351 0.033634484 -0.0068651666
0.07560873 0.08717078 -0.09726807 -0.24170743 0.24850263 -0.039730147 0.21811563 0.3036106
-0.1672736 0.06726885 0.039735217 0.038909733 0.027166843 -0.20739178 -0.2126745 -0.1590309
0.097526096 0.14736222 0.07149088 0.28714117 -0.017709563 0.12130405 0.22588311 -0.07025028
-0.035990953 -0.096578605 0.24905786 0.24084362 0.06180483 -0.14571679 -0.12498763 0.21760672
-0.16662851 0.059993777 -0.15097678 0.01406953 0.19925106 0.21078724 -0.051576555 0.09085657
-0.122782335 0.2601469 -0.1726301 0.04350201 0.068973936 0.20026916 -0.057542473 0.28509387
0.19085324 -0.1355411 -0.19152687 -0.118212834 0.030559493 -0.059321266 -0.08062814 0.263094
-0.09786379 0.08721193 -0.13782287 0.24639443 -0.06196637 0.04949495 0.058894753 -0.016391957
0.046046108 -0.0803204 0.28938606 0.07170646 0.053955097 0.1805005 0.022700617 -0.09921325
-0.15491444 0.2632234 0.13109492 -0.06727314 -0.2655404 0.09292065 0.055538207 0.062413003
-0.13479815 0.16687204 0.07665366 -0.082162134 -0.21037602 0.26637685 -0.00594601 -0.073157854
0.16566192 0.10286352 -0.19824323 -0.15923831 -0.089336194 -0.26222497 -0.18862244 0.09789103
0.108942114 0.06502037 0.09031199 0.06696978 -0.21687774 0.15461917 0.2545047 -0.25444975
00000000: 103b 5b3c ed3e 3abd b561 1fbd b0b2 c0bd
00000010: 0162 5abe 2a14 23be f059 e13d 75f0 6fbd
00000020: e841 973e 9488 ea3d 929a a13d 422d 1e3e
00000030: 32cf 1ebe 9e8e 2c3c a31e 9dbc acbe bebc
00000040: ae55 863e 3eba 213e 792e cd3d a337 1c3d
00000050: 80a5 763e 9e47 853e a6e7 3bbe 2641 433d
00000060: 8c9a 5f3e 8b46 cdbd 0fa0 84be fb1a 15be
00000070: a6fe a53d c765 5dbe 0ec4 c4bd 5b1c 2a3e
00000080: 585c 483d eac7 14be 2826 14be 90a4 ea3c
00000090: 823e 633e cc80 d0bd 3c58 a4bd d438 77be
000000a0: 804f 673b 366d 53be e023 9f3d 6c54 f23d
000000b0: 90ee 873d 6864 c1bd 5810 8ebd 00e7 3abe
000000c0: 0624 033e 0cf4 553d 4184 683c 77b2 8d3d
000000d0: 4353 d63c 3f30 983e 8c2c 8d3d d401 6a3c
000000e0: e601 2f3e 7424 313e 5814 db3c c115 193d
000000f0: 84b9 7c3e df4e 32be e240 133e fab5 1cbb
00000100: c32c d7bd 4384 673e 05ac 273e c597 013e
00000110: 76b2 4cbe 576a 6c3e 7014 0cbd ba87 f3bd
00000120: 80b1 84bb 1d67 753d b8db 80bd d184 82bd
00000130: 2120 73bd e731 563e b030 5d3d 24c9 9b3e
00000140: c872 213e 4e55 41bb 5049 80be 0c8c fc3d
00000150: 7cea 81bd 32f3 e13d 8c60 a9bd 75b5 883e
00000160: b6cf 933e 78ce 983e eab9 8dbd aae8 2d3e
00000170: 740b 833e a337 12be 33ac 233c 7bbc 5bbd
00000180: 74a2 b5b9 92a0 4dbe e8ad 16bc da38 1c3e
00000190: d2df 2c3e 25c8 67be 705e 5d3e f630 87be
000001a0: 819f 7b3e b40a f83c 77ce 6cbd 8513 293e
000001b0: 972f b03a eb6b 07be 15bf 7b3e fd97 523e
000001c0: 098d c73d fe49 073d 3fb0 edbd b6b3 d2bc
000001d0: 8e71 fabd 641e 343d a0b7 54be 1a49 1dbd
000001e0: 2eb2 7f3e 7abb 0cbe f6b0 433c b3b6 673e
000001f0: b9f2 0fbe 27f9 103e 6c6b 943d 3bb9 52be
00000200: 2a3a 7abe 978a 2abe a363 5b3c 48c5 823d
00000210: 9e94 703e 7727 30be 94ad 133e 3f6a a83d
00000220: 9c82 9cbd 6bea 293e 4b63 343e 1cff 44be
00000230: 8fcb 583e 1bca 443d db63 67be f426 393e
00000240: 0f9a 1bbe c24f 273a 75ee adbc cc27 073e
00000250: 3d97 a23c aa90 0b3d 50c4 093d 31f5 e0bb
00000260: c0d8 9a3d 9886 b23d 7b34 c7bd 2782 77be
00000270: 7977 7e3e 14bc 22bd b459 5f3e d972 9b3e
00000280: c549 2bbe 40c4 893d 65c1 223d d05f 1f3d
00000290: 008d de3c 835e 54be 58c7 59be ffd8 22be
000002a0: c3bb c73d 1fe6 163e cf69 923d 2b04 933e
000002b0: a513 91bc 426e f83d e74d 673e 61df 8fbd
000002c0: 406b 13bd 01cb c5bd 0609 7f3e b69f 763e
000002d0: 1027 7d3d c836 15be 84f9 ffbd 4cd4 5e3e
000002e0: aaa0 2abe 09bc 753d a899 1abe e383 663c
000002f0: 7808 4c3e 9cd8 573e f041 53bd 0213 ba3d
00000300: 4e75 fbbd f931 853e f2c5 30be 2a2f 323d
00000310: 3542 8d3d 5c13 4d3e a8b1 6bbd d3f7 913e
00000320: 086f 433e 49cb 0abe 9f1f 44be 9219 f2bd
00000330: e757 fa3c dbfa 72bd 5e20 a5bd 42b4 863e
00000340: d06c c8bd 2b9c b23d 7021 0dbe d24e 7c3e
00000350: 73d0 7dbd 37bb 4a3d a03b 713d 6d48 86bc
00000360: d89a 3c3d 067f a4bd 692a 943e d6da 923d
00000370: 0500 5d3d 20d5 383e a5f6 b93c 5130 cbbd
00000380: e4a1 1ebe 38c5 863e bf3d 063e 80c6 89bd
00000390: e9f4 87be 2f4d be3d 087c 633d c7a4 7f3d
000003a0: 8708 0abe 81e0 2a3e 98fc 9c3d 9f44 a8bd
000003b0: d06c 57be 8c62 883e bfd6 c2bb c9d3 95bd
000003c0: 47a3 293e 1caa d23d 4600 4bbe 5e0f 23be
000003d0: e5f5 b6bd 5a42 86be 3e26 41be 187b c83d
000003e0: 0b1d df3d 6629 853d 7ef5 b83d 7427 893d
000003f0: 3315 5ebe 7d54 1e3e 714e 823e 3d47 82be

decoder.0.bias f4 [32]
0.07996423 0.08091538 -0.047350585 0.16572951 0.19288836 0.110186696 0.048472807 -0.20375304
0.05214107 0.26473528 -0.15488338 -0.16053839 0.018232113 -0.18890461 -0.056402877 0.09581162
0.19083169 -0.0035345058 0.13349761 0.19373576 0.18950096 0.050442096 -0.086252265 -0.23121494
-0.20761883 -0.18157728 0.008731652 0.16831672 0.2212522 0.2689213 0.06993176 0.18015136
00000000: 49c4 a33d f6b6 a53d b0f2 41bd ffb4 293e
00000010: 8784 453e 90a9 e13d 6c8b 463d a3a4 50be
00000020: e091 553d 628b 873e c099 1ebe 2d64 24be
00000030: 835b 953c 3670 41be b406 67bd e238 c43d
00000040: 6269 433e 2ba3 67bb 99b3 083e ab62 463e
00000050: 8a0c 423e 5f9c 4e3d 07a5 b0bd 9cc3 6cbe
00000060: 089a 54be 65ef 39be 340f 0f3c 385b 2c3e
00000070: f08f 623e 0db0 893e 6238 8f3d 9979 383e

decoder.2.weight f4 [64, 32]
-0.11848117 -0.060494337 0.026251122 -0.07570168 0.05624919 0.041943345 -0.012698423 0.10198112
-0.009217721 -0.11089217 0.05681881 0.051496956 0.19857316 0.009171843 -0.071114354 -0.06710264
0.07135445 0.21769442 -0.029581623 -0.03628223 0.0718714 0.12628937 0.22857004 -0.1258441
0.121488094 -0.12330396 0.14996563 0.0237378 0.110670336 0.036425814 0.19711974 0.052834712
0.018469363 0.09155421 -0.11667767 -0.016265638 -0.0938888 -0.09773925 -0.1517669 0.11192272
-0.053050146 0.059326373 0.020413032 0.014151525 0.18701984 0.13008001 -0.20256439 0.053161737
-0.022449164 0.16944882 -0.039646633 0.072804615 0.1871296 -0.1137195 0.21670856 0.065404214
-0.06644705 -0.19764224 -0.072589226 0.0058034128 -0.11671703 0.04939533 0.071344525 -0.01963055
-0.14355116 -0.041587587 -0.08577809 -0.03411237 0.11267869 -0.18781945 -0.040711492 -0.13745856
-0.11047694 -0.01521468 0.15088479 0.105179235 -0.13678028 0.103818245 0.060769167 0.07876811
0.11175422 0.10273995 -0.020697715 0.016498843 -0.045599785 -0.09059684 -0.18013799 0.17654692
-0.03644681 -0.0749415 0.10335539 0.07419209 -0.12555784 -0.107313335 0.012864146 -0.08082577
-0.061208863 0.10472752 0.016755566 0.109973624 -0.16582833 -0.105826944 0.0295787 0.039396957
0.03352054 -0.14147468 0.014377072 -0.13520136 -0.12043272 -0.11832316 0.01129248 0.076273315
0.071997 -0.086867966 -0.12805957 -0.00874108 0.09324505 0.1714257 -0.033575058 -0.029707894
0.11068602 -0.10245003 0.100989 0.1146874 0.1445614 0.1847041 -0.16528046 -0.15454756
-0.10907207 0.0186494 -0.044193164 0.13530318 -0.12329851 -0.0074765333 -0.073611595 0.13916683
-0.11653808 -0.10912061 0.032866284 0.06913762 -0.083540455 0.013015771 -0.12127673 -0.15050994
0.032160707 0.059148155 -0.13988516 -0.04401523 0.004052814 -0.14051433 -0.14994074 0.1683755
-0.04665191 0.017062962 -0.13569464 0.06521311 -0.11997432 0.0025995772 0.036060054 -0.10381478
0.1788315 0.14611779 0.021655113 0.03452012 0.033094104 0.15292484 0.13222228 0.07022328
0.12052464 0.0055855075 -0.022550426 0.018848106 0.032174166 0.16072589 -0.12155009 0.112051316
-0.12102221 -0.13187517 -0.12076056 -0.013982278 0.14567335 -0.1300697 -0.038698435 -0.13222206
0.10277679 0.028986014 0.16900578 -0.13234907 0.053204596 0.17150766 0.17470467 -0.06298321
-0.11441361 -0.061321065 -0.09047097 0.0016868513 0.06034034 -0.07901496 0.04408148 -0.0623049
-0.036257252 0.0996633 -0.058140773 0.04104999 0.02313961 -0.060048863 -0.0038457504 0.19572134
0.092527926 0.004857441 -0.15886192 -0.062376443 0.06834479 0.22655219 0.14193623 -0.027309412
-0.10434347 0.18214822 0.1476759 -0.17143033 -0.028211141 0.12250334 0.01852737 0.019730743
0.16198528 0.1548986 -0.055671602 -0.032605093 0.008251276 0.08799989 0.034969434 -0.1226584
0.030127933 -0.09345479 0.1260158 0.18022779 0.16445997 0.082263924 -0.09549129 -0.038106807
0.111061476 -0.076649636 0.22923402 0.01091746 0.21166883 -0.12751526 -0.13190024 0.06252556
-0.04486476 -0.123453625 -0.0088061625 -0.017276175 0.19435865 0.18303032 -0.017636117 -0.062209055
00000000: 41a6 f2bd e9c8 77bd 980c d73c 7b09 9bbd
00000010: 8d65 663d c9cc 2b3d 0c0d 50bc 7adb d03d
00000020: ed05 17bc 6f1b e3bd d7ba 683d 79ee 523d
00000030: c356 4b3e 7f45 163c 67a4 91bd 1c6d 89bd
00000040: 4822 923d 49eb 5e3e 2955 f2bc ad9c 14bd
00000050: 5031 933d 0052 013e 440e 6a3e 47dd 00be
00000060: c0ce f83d c986 fcbd 9790 193e c675 c23c
00000070: 21a7 e23d 3c33 153d c2d9 493e 3669 583d
00000080: 104d 973c c680 bb3d b4f4 eebd 843f 85bc
00000090: c548 c0bd 842b c8bd c868 1bbe bd37 e53d
000000a0: 1c4b 59bd 3600 733d 3b39 a73c ccdb 673c
000000b0: 2182 3f3e b233 053e 0a6d 4fbe 1fc0 593d
000000c0: 4fe7 b7bc fe83 2d3e 8264 22bd 961a 953d
000000d0: e79e 3f3e c5e5 e8bd d9e8 5d3e a5f2 853d
000000e0: 6415 88bd ba62 4abe a9a9 94bd 8e2a be3b
000000f0: 5709 efbd c252 4a3d 141d 923d 3fd0 a0bc
00000100: 13ff 12be bf57 2abd 6cac afbd 6ab9 0bbd
00000110: 16c4 e63d be53 40be 18c1 26bd f0c1 0cbe
00000120: bc41 e2bd fe46 79bc 8b81 1a3e 3668 d73d
00000130: 2110 0cbe a99e d43d 17e9 783d 2d51 a13d
00000140: 66df e43d 5369 d23d 418e a9bc 9528 873c
00000150: d7c6 3abd d68a b9bd 1876 38be b7c8 343e
00000160: 4049 15bd ee7a 99bd feab d33d 06f2 973d
00000170: 3c92 00be 18c7 dbbd 24c4 523c fb87 a5bd
00000180: 25b6 7abd 627b d63d f842 893c da39 e13d
00000190: e7ce 29be ccbb d8bd 084f f23c b45e 213d
000001a0: d54c 093d bdde 10be d08d 6b3c 3a72 0abe
000001b0: 6ea5 f6bd 6a53 f2bd 1804 393c 2f35 9c3d
000001c0: 2a73 933d d5e7 b1bd 0c22 03be bf36 0fbc
000001d0: 43f7 be3d 388a 2f3e 0086 09bd f85d f3bc
000001e0: 5aaf e23d 52d1 d1bd 52d3 ce3d 3ae1 ea3d
000001f0: e707 143e 1223 3d3e 483f 29be b741 1ebe
00000200: 2d61 dfbd a0c6 983c e403 35bd eb8c 0a3e
00000210: ee83 fcbd b5fd f4bb adc1 96bd c081 0e3e
00000220: 84ab eebd a07a dfbd cc9e 063d 0698 8d3d
00000230: 4217 abbd 1a40 553c ef5f f8bd 471f 1abe
00000240: f2ba 033d 5645 723d 0e3e 0fbe 5049 34bd
00000250: 78cd 843b fde2 0fbe 118a 19be a16a 2c3e
00000260: 1316 3fbd a0c7 8b3c 89f3 0abe 738e 853d
00000270: 19b5 f5bd ab5d 2a3b b5b3 133d d89c d4bd
00000280: 9b1f 373e e79f 153e 1066 b13c f864 0d3d
00000290: af8d 073d 5498 1c3e 4765 073e 39d1 8f3d
000002a0: 9fd5 f63d a206 b73b acbb b8bc 5867 9a3c
000002b0: 0fc9 033d 5495 243e 41ef f8bd 297b e53d
000002c0: 7eda f7bd 490a 07be 5051 f7bd ed15 65bc
000002d0: 652b 153e fe30 05be 4082 1ebd 3865 07be
000002e0: a37c d23d 1474 ed3c da0f 2d3e 8486 07be
000002f0: 10ed 593d b49f 2f3e c8e5 323e 57fd 80bd
00000300: af51 eabd cc2b 7bbd d848 b9bd 5619 dd3a
00000310: 6f27 773d 98d2 a1bd c88e 343d 6c33 7fbd
00000320: 7c82 14bd 461c cc3d 0525 6ebd 0924 283d
00000330: 488f bd3c ccf5 75bd fc08 7cbb 2d6b 483e
00000340: 487f bd3d 2b2b 9f3b b3ac 22be 717e 7fbd
00000350: 5af8 8b3d 4cfd 673e bb57 113e fdb7 dfbc
00000360: 07b2 d5bd 1085 3a3e 5a38 173e 6f8b 2fbe
00000370: 0d1b e7bc 08e3 fa3d b6c6 973c 5ea2 a13c
00000380: 78df 253e bd9d 1e3e e807 64bd eb8c 05bd
00000390: 5c30 073c 4939 b43d 1c3c 0f3d 5434 fbbd
000003a0: dbce f63c 3a65 bfbd 490a 013e a28d 383e
000003b0: 3268 283e fd79 a83d f090 c3bd e215 1cbd
000003c0: 3374 e33d 7cfa 9cbd 53bc 6a3e 25df 323c
000003d0: b7bf 583e 5c93 02be db10 07be 670d 803d
000003e0: 1cc4 37bd 41d5 fcbd b947 10bc c486 8dbc
000003f0: f405 473e 4d6c 3b3e 9e79 90bc ecce 7ebd

decoder.2.bias f4 [64]
-0.04353736 0.21839347 -0.14463949 -0.07788 0.032069895 -0.10018534 -0.06311473 0.21028689
-0.17323478 0.11268872 0.15209824 -0.021350062 0.17154507 0.020131854 0.14860892 -0.14748062
0.08309828 -0.15496522 0.10208139 0.1501494 0.16119324 0.031688042 -0.0051088333 -0.11887335
0.06587887 0.070328146 -0.15161262 0.021275014 0.14209296 0.08123695 0.15912741 -0.11978128
-0.11275302 -0.120190695 -0.12478943 0.18072827 0.16109021 -0.013877798 0.203894 0.20077135
-0.003002897 -0.064406544 0.025762461 -0.16317083 -0.064299226 0.14661394 -0.11627181 0.0635102
-0.084445424 -0.16777259 0.008988321 0.07738153 0.20701423 0.0227409 -0.017985117 0.12764588
-0.052753672 0.1746616 -0.17460282 0.15302595 0.14446734 0.104300626 0.06592549 -0.13369434
00000000: 3b54 32bd 8aa2 5f3e 601c 14be 8d7f 9fbd
00000010: b95b 033d f92d cdbd 4c42 81bd 7255 573e
00000020: 7564 31be 58c9 e63d a4bf 1b3e 53e6 aebc
00000030: 83a9 2f3e 8feb a43c f02c 183e 2905 17be
00000040: 6e2f aa3d 34af 1ebe 0c10 d13d c4c0 193e
00000050: d70f 253e 52cb 013d 0068 a7bb df73 f3bd
00000060: 80eb 863d 3408 903d 5740 1bbe f048 ae3c
00000070: d180 113e 8f5f a63d 4cf2 223e e34f f5bd
00000080: 0eeb e6bd 8a26 f6bd 9a91 ffbd d510 393e
00000090: d5f4 243e b45f 63bc 97c9 503e 0197 4d3e
000000a0: 40cc 44bb 94e7 83bd cc0b d33c 4116 27be
000000b0: 50af 83bd f721 163e ea1f eebd a311 823d
000000c0: b9f1 acbd 94cc 2bbe c043 133c 357a 9e3d
000000d0: 8afb 533e 204b ba3c 8655 93bc 9ab5 023e
000000e0: 3c14 58bd 7eda 323e 15cb 32be d6b2 1c3e
000000f0: 3fef 133e 919b d53d f103 873d 2be7 08be

decoder.4.weight f4 [19, 64]
-0.13980198 0.013315939 -0.059270322 -0.08971424 -0.072035 0.02901338 0.10230209 -0.01875465
0.024709111 -0.019326668 -0.040586144 0.014067271 -0.06782073 -0.0807974 -0.09844305 0.039749023
-0.110528454 -0.09803526 -0.06517782 -0.09484208 -0.050231252 -0.044159736 -0.010500312 -0.115583
-0.08103258 -0.0518208 -0.100256175 -0.05606389 -0.016402096 -0.1525786 0.080043204 0.02858913
-0.06360927 -0.046910793 -0.029343983 -0.006241159 0.01316551 -0.091885574 -0.036954235 -0.14172344
0.089634195 0.03308908 -0.0014444676 0.033494495 0.022252392 -0.05345618 -0.035457842 0.096885845
-0.0725799 -0.033013906 -0.07717894 0.03837991 -0.08648152 0.009838983 -0.025073988 -0.015229775
-0.008629307 -0.10952442 -0.06945828 -0.1743802 -0.045060325 -0.1609733 -0.0035946514 0.010315282
-0.07518806 -0.12164391 0.10579999 -0.05094908 0.03285135 0.009767433 0.13702847 -0.09351809
0.0022787151 0.03904287 -0.10493646 0.14388818 -0.04671694 -0.002644543 -0.017358381 -0.035255942
-0.09333034 -0.08729374 -0.04204117 -0.11920593 0.009336482 -0.041687474 0.054489285 -0.08380927
0.008655323 -0.1678778 -0.09555719 0.011743052 -0.14943586 -0.13029183 0.076493725 -0.083407745
-0.07256941 0.0039130896 0.019732011 -0.0036421185 0.022097552 -0.14538305 -0.03029395 -0.086877674
-0.034207508 -0.04583867 -0.0933449 0.055613156 0.12023154 -0.008232102 0.103044264 0.07804013
0.123936616 0.10663351 0.061144993 -0.074340396 -0.17395392 -0.112363994 0.016394759 -0.123496085
0.011205807 -0.15720095 -0.052819323 -0.08003773 -0.12660429 0.025745314 0.12184934 0.1423766
0.06677414 0.06348669 -0.12292903 -0.060599033 -0.0575044 -0.050175417 0.05723838 0.041872006
0.0072334697 -0.038036767 0.038851228 -0.0903578 -0.1265375 0.041296273 -0.007903947 0.037595633
-0.038248125 -0.116322584 -0.12404351 -0.119958125 -0.06421883 -0.025674265 0.04469499 -0.12429035
0.09102293 -0.0023537641 -0.021180104 0.09501952 -0.17474307 0.029803596 -0.052697167 -0.05621603
-0.02308111 -0.051232934 -0.08958841 -0.1540129 -0.055089667 0.029267339 0.01680757 -0.011696857
-0.021158189 -0.18093689 -0.120580345 0.118147425 -0.11270733 0.030689737 -0.0488605 -0.009260203
-0.025874343 -0.04366369 -0.04314466 0.06230477 -0.10348528 -0.03997311 -0.053903308 -0.1343923
0.037196636 -0.0925809 -0.048944 -0.11811122 -0.08075706 0.072241046 -0.010090186 -0.068324104
0.08346923 0.03259838 -0.12590046 0.087945126 0.05092931 0.11642177 0.112866506 -0.1597074
-0.01573555 -0.0076217162 -0.087036364 0.086307906 -0.035702076 0.12737283 -0.089155465 0.11199761
-0.17176268 -0.027087212 -0.02242709 -0.1339387 0.06703582 -0.12726201 -0.0060014725 0.04653181
0.09584889 -0.15657926 -0.07487297 -0.11275422 -0.094288126 0.050817862 0.002210515 -0.10640539
-0.115655735 -0.013028786 -0.039379388 0.084134 -0.09573591 0.07938153 -0.09738898 -0.04933445
0.0017798394 -0.00052934117 -0.052053913 -0.04612598 0.15393642 -0.04303399 -0.08155092 0.06924026
0.024959253 0.013434767 -0.011285916 0.07417897 -0.020471828 0.10690935 -0.078722514 0.008053984
-0.11209071 -0.05128716 0.027111243 -0.09563265 -0.13751358 -0.06867508 -0.0566619 0.1632136
00000000: 4028 0fbe 192b 5a3c 70c5 72bd 19bc b7bd
00000010: 1687 93bd 78ad ed3c c283 d13d 5aa3 99bc
00000020: c36a ca3c f652 9ebc a83d 26bd 697a 663c
00000030: 98e5 8abd 1b79 a5bd 839c c9bd dfcf 223d
00000040: be5c e2bd b6c6 c8bd f37b 85bd 903c c2bd
00000050: 49bf 4dbd d7e0 34bd 8009 2cbc c8b6 ecbd
00000060: 69f4 a5bd 0c42 54bd 1c53 cdbd 40a3 65bd
00000070: b05d 86bc 913d 1cbe b1ed a33d c033 ea3c
00000080: 9445 82bd 8825 40bd cb62 f0bc a382 ccbb
00000090: 27b4 573c 812e bcbd 535d 17bd f31f 11be
000000a0: 2292 b73d 6a88 073d 4a54 bdba 8631 093d
000000b0: a64a b63c def4 5abd 3e3c 11bd 166c c63d
000000c0: c5a4 94bd 9739 07bd fe0f 9ebd 4134 1d3d
000000d0: 391d b1bd b033 213c f767 cdbc 4e86 79bc
000000e0: f061 0dbc 574e e0bd 2540 8ebd b990 32be
000000f0: 2d91 38bd 2fd6 24be 3e94 6bbb 6e01 293c
00000100: 33fc 99bd 7120 f9bd aaad d83d fcaf 50bd
00000110: 238f 063d 9507 203c 3151 0c3e 6a86 bfbd
00000120: 7f56 153b 6beb 1f3d ede8 d6bd 6c57 133e
00000130: 435a 3fbd 1250 2dbb 2a33 8ebc 8968 10bd
00000140: fa23 bfbd 0fc7 b2bd 5d33 2cbd 3d22 f4bd
00000150: 0bf8 183c 7cc0 2abd 2830 5f3d 32a4 abbd
00000160: 0ecf 0d3c 28e8 2bbe 7db3 c3bd ee65 403c
00000170: b705 19be 396b 05be bea8 9c3d aed1 aabd
00000180: 459f 94bd 6039 803b 07a5 a13c 9cb0 6ebb
00000190: ed05 b53c 4bdf 14be 052b f8bc ecec b1bd
000001a0: 2c1d 0cbd 54c1 3bbd 9c2b bfbd 9fca 633d
000001b0: f43b f63d f0df 06bc df08 d33d 81d3 9f3d
000001c0: 7bd2 fd3d ab62 da3d 2c73 7a3d c73f 98bd
000001d0: fa20 32be 181f e6bd 4d4e 863c 84eb fcbd
000001e0: 9098 373c 49f9 20be 1359 58bd d2ea a3bd
000001f0: 8ea4 01be d6e7 d23c 268c f93d 2ccb 113e
00000200: e1c0 883d 4f05 823d 37c2 fbbd b136 78bd
00000210: bc89 6bbd bd84 4dbd cb72 6a3d fb81 2b3d
00000220: be06 ed3b 71cc 1bbd 7722 1f3d 830d b9bd
00000230: 0c93 01be 4826 293d 8e7f 01bc e1fd 193d
00000240: 11aa 1cbd 893a eebd 860a febd 9bac f5bd
00000250: 2985 83bd d652 d2bc 1812 373d f08b febd
00000260: 3b6a ba3d 9c41 1abb e681 adbc 9899 c23d
00000270: d9ef 32be ac26 f43c fcd8 57bd c842 66bd
00000280: 9914 bdbc a0d9 51bd 217a b7bd 8fb5 1dbe
00000290: b4a5 61bd 0fc2 ef3c 07b0 893c 2da4 3fbc
000002a0: f053 adbc 8547 39be d4f2 f6bd 47f7 f13d
000002b0: 1ad3 e6bd 0b69 fb3c f321 48bd 1bb8 17bc
000002c0: 6ef6 d3bc b3d8 32bd 74b8 30bd 4933 7f3d
000002d0: 17f0 d3bd d8ba 23bd b7c9 5cbd 239e 09be
000002e0: 805b 183d 0e9b bdbd 8179 48bd 4ce4 f1bd
000002f0: f563 a5bd 1df3 933d 4f51 25bc 82ed 8bbd
00000300: eaf1 aa3d e185 053d 0dec 00be 931c b43d
00000310: 419b 503d 896e ee3d 8e26 e73d 568a 23be
00000320: d7e7 80bc 97bf f9bb 1f40 b2bd 33c2 b03d
00000330: 573c 12bd 066e 023e 2497 b6bd 015f e53d
00000340: 8ee2 2fbe 00e6 ddbc 04b9 b7bc 3a27 09be
00000350: 134a 893d f950 02be 00a8 c4bb 2498 3e3d
00000360: 6c4c c43d 5056 20be 0057 99bd afeb e6bd
00000370: 221a c1bd 6426 503d 4ade 103b 12eb d9bd
00000380: eadc ecbd b076 55bc 484c 21bd 724e ac3d
00000390: 3011 c4bd c992 a23d e073 c7bd ec12 4abd
000003a0: 8049 e93a 7cc3 0aba 7c36 55bd 98ee 3cbd
000003b0: 82a1 1d3e 6944 30bd 2b04 a7bd d6cd 8d3d
000003c0: 5977 cc3c 7f1d 5c3c 90e8 38bc 25eb 973d
000003d0: 89b4 a7bc 4af3 da3d 4539 a1bd dbf4 033c
000003e0: d08f e5bd 7c12 52bd 6618 de3c 0ddb c3bd
000003f0: 5cd0 0cbe 85a5 8cbd 4f16 68bd 7721 273e

decoder.4.bias f4 [19]
-0.034696694 -0.05799435 -0.054717783 -0.16663246 -0.07299782 0.07380463 -0.15412492 0.052661143
-0.0063226875 0.07905772 -0.06523566 -0.07812257 0.07443703 0.03724463 -0.039498813 -0.09682641
-0.10370086 0.00094238337 -0.055349234
00000000: 1f1e 0ebd 7c8b 6dbd c11f 60bd b3a1 2abe
00000010: e27f 95bd e226 973d ecd2 1dbe 36b3 573d
00000020: 8c2e cfbb 04e9 a13d 469a 85bd bafe 9fbd
00000030: 7172 983d d38d 183d 82c9 21bd ed4c c6bd
00000040: 1e61 d4bd 470a 773a e1b5 62bd
