backend/models/traffic_gnn_model.pt (torch, 25196 bytes, 6 tensors)

conv1.bias f4 [64]
000000 3a 86 34 3d d6 39 01 bd 17 30 40 3d 55 a3 99 bc
       0.04407332 -0.031549297 0.046920862 -0.01875464
000010 24 79 43 bc 77 94 dc 3c 12 3f 0d 3d e8 5f 2d 3d
       -0.011930738 0.026926262 0.034483977 0.04232779
000020 65 bc 33 3d 00 b7 3b 3d 49 c1 56 3d 5b 06 21 bd
       0.04388084 0.04582882 0.052430425 -0.0393127
000030 f7 db 3e 3d 52 da 13 3d 66 2e 47 bc cf 31 23 3d
       0.046596494 0.03609688 -0.012157058 0.039842423
000040 ab 6e 8f bc 12 62 09 3d 29 81 21 3d f9 d6 a1 3c
       -0.017508825 0.033540793 0.039429817 0.019755827
000050 b5 47 8d bb 7e 45 28 3d 11 9c 0b 3d 70 e9 1f 3c
       -0.0043115267 0.041081898 0.034084383 0.009760246
000060 e3 ca 02 bd f4 93 a3 bb ae a2 84 3c 03 e4 25 3d
       -0.03193177 -0.0049920026 0.016190853 0.040500652
000070 c3 eb 10 3d 31 43 88 bc 80 63 c7 bc b9 5a 27 3d
       0.03538109 -0.016633602 -0.024339437 0.040858004
000080 5f c2 45 bc 88 25 39 3d 67 55 18 3d 5b 87 33 3d
       -0.012070267 0.04520181 0.03719082 0.043830257
000090 8e f5 4c 3d 28 ee 3c 3d e8 6a 69 bb 65 45 26 3d
       0.050038867 0.04612556 -0.00356167 0.040593524
0000a0 bf 80 c4 bc 85 b8 0b bc 04 51 a2 bc 29 f3 38 3d
       -0.023987172 -0.00852788 -0.019814022 0.04515377
0000b0 1c f5 c4 bc 88 80 70 bc 1f e1 2a 3d a2 ba 0f 3d
       -0.024042659 -0.014679082 0.0417186 0.035090096
0000c0 c4 8f 25 3d b6 3b b6 3c a9 00 36 3d e8 2d 90 3b
       0.04042031 0.02224527 0.044434223 0.0044000037
0000d0 1c 47 26 3d 81 c6 37 3d 1a fa 40 3d 3d d2 25 3d
       0.04059516 0.044867042 0.047113515 0.040483702
0000e0 4f 26 46 3d 96 9e 33 3d 46 19 39 3d 3a b4 49 3d
       0.048376378 0.04385241 0.04519012 0.049244143
0000f0 19 5f 24 3d ef 55 95 3c 78 a5 40 3d 15 b8 48 3d
       0.040129755 0.018229453 0.047032803 0.04900368

conv1.lin.weight f4 [64, 19]
000000 1e b3 03 be 7b ec 34 3e 34 c6 0e 3d 51 82 55 3e
       -0.12861297 0.17668335 0.03485699 0.20850493
000010 54 7b 02 3e 72 4a 57 3e bf 81 9e 3e 81 8e 4d 3e
       0.12742358 0.21024492 0.30958363 0.20073892
000020 f4 1c ba bd 0c 50 f8 3a 85 f0 01 3e 9d 87 18 bd
       -0.090875536 0.0018944754 0.12689407 -0.037238706
000030 a9 32 94 be 39 08 0a bc f3 b9 27 3e 5e 6f 1f bc
       -0.289449 -0.008424812 0.16379528 -0.009731142
000040 9e 22 62 3e 71 7f d3 3d b4 e0 4c be 14 db 05 3e
       0.22083518 0.10327042 -0.20007592 0.13071853
000050 36 e2 31 3c 9b c5 98 3e 24 86 3c 3e 59 17 1e 3e
       0.010857156 0.2983826 0.18410546 0.15438594
000060 ea 2c e0 3d 27 19 0c 3d 7c 4a 89 3d 7d 75 25 be
       0.10946067 0.034203675 0.0670366 -0.161581
000070 2c 5a 4b 3e b2 d8 0e be 12 d7 8b 3d ea 52 24 be
       0.19858617 -0.1394985 0.06828131 -0.16047254
000080 ac be e6 3d b9 fb d7 bd 4b 60 e1 bd 7c 85 87 bb
       0.112668365 -0.10546059 -0.110046946 -0.0041357856
000090 9e 0d 4a be 7b 2c 20 be b1 19 6e 3d 7e 5a 7f be
       -0.19731757 -0.15641968 0.05812997 -0.24936864
0000a0 ee da f7 bd 88 85 58 bd a7 ee 94 be d0 54 65 be
       -0.121023044 -0.05286172 -0.29088327 -0.22395635
0000b0 53 f7 29 bd 47 4c 0c 3e 9e eb bd 3b 8e a1 4e 3e
       -0.041495632 0.13700972 0.00579591 0.20178816
0000c0 74 be c5 3c 10 0f ea bd 34 b0 ab bd f6 b0 17 3e
       0.024138667 -0.11428654 -0.083832175 0.14813599
0000d0 a4 ac 08 3b fc 96 99 be e3 58 88 be fc 51 23 3e
       0.0020854855 -0.29998004 -0.26630315 0.15949243
0000e0 f4 c2 81 be cd 52 79 bd bf 7f 56 be 58 b7 60 be
       -0.2534405 -0.06086998 -0.20947169 -0.2194494
0000f0 85 7c 23 3e da 5c 62 be c8 d2 73 3e 09 1d 39 bd
       0.15965469 -0.22105733 0.23810875 -0.045193706
000100 cd e2 22 be cf dd 17 3c e5 06 6b be 99 62 be 3d
       -0.1590683 0.009269192 -0.22951849 0.0929615
000110 1f e1 1d 3e 18 4e ee 3b f1 f9 70 3e 63 d0 d7 3d
       0.15417908 0.007272493 0.23532845 0.105377935
000120 e7 56 16 be 6c 58 c9 3d a0 95 12 3e 30 85 c6 3d
       -0.14681588 0.09831318 0.1431489 0.09693372
000130 b1 a2 b3 3d 82 49 a7 bc 16 fb fc bd 6d 11 c5 bc
       0.08771265 -0.020420793 -0.12352578 -0.02405616
000140 88 3d 56 bd 6d 93 c2 3d 2a 58 e5 bd 75 ce e8 3c
       -0.052304775 0.095007755 -0.111984566 0.028418759
000150 07 e8 2e be b6 18 94 bc 61 19 22 be 7d 1d 75 be
       -0.17080699 -0.01807819 -0.15829994 -0.2393703
000160 7f f3 47 bd e7 c8 27 3e 75 52 6c be dc c7 ac 3c
       -0.0488162 0.16385232 -0.2307833 0.021091394
000170 85 01 12 bd 95 d6 fc 3d 87 ee 41 be d3 c5 6a 3e
       -0.03564598 0.12345616 -0.18938647 0.22927026
000180 f9 65 de 3c 83 e0 2a be 05 4a ef 3d 3d 1e 96 bd
       0.027148234 -0.16687207 0.1168404 -0.07329986
000190 30 c1 86 bd ac c7 4a be 16 a8 41 bd 28 63 c5 3d
       -0.06579816 -0.19802731 -0.04727944 0.09638053
0001a0 0d d6 65 bc 5f 14 81 3e 1f ad fe 3d 81 80 2b be
       -0.014028084 0.25210854 0.12435364 -0.16748239
0001b0 c5 70 d4 3d 8b b7 6f be f3 f1 ff bd 22 64 2c bd
       0.103730716 -0.2340986 -0.1249732 -0.04208768
0001c0 fb 39 1a 3e e6 47 2d bc ca ab 7a be f3 d8 9f bd
       0.1506118 -0.010576224 -0.24479595 -0.07805052
0001d0 4e be 86 bd 9e 5d 51 3e 9f b1 5f 3d 0f 85 75 be
       -0.065792665 0.20445868 0.054612752 -0.23976539
0001e0 91 62 91 be 92 39 ea bd 88 e6 9b 3b 6f d3 26 3e
       -0.28395513 -0.11436762 0.004757706 0.16291593
0001f0 09 2f 53 be da db 56 bd 95 ca 2e 3d da 8f 7d be
       -0.20623411 -0.05245576 0.042673666 -0.24761906
000200 cf cc 09 3e c0 88 76 be 2a 84 7a be 89 56 74 be
       0.13457035 -0.24075603 -0.24464479 -0.23861136
000210 5e 0a b5 3d f0 8f 16 be 49 e1 98 3d e0 e1 38 3e
       0.08839868 -0.14703345 0.07464845 0.18054914
000220 47 68 5a 3e 2d df 91 3d 16 ce b6 bc 00 1d 51 3e
       0.21328841 0.071226455 -0.022315066 0.20421219
000230 4f 6f b0 3c 64 95 c3 bc 66 94 08 be 8c e3 3a bd
       0.021537451 -0.023874946 -0.1333786 -0.04562716
000240 84 20 24 bd 1f 44 23 3e df a2 4d 3e 8a f7 85 be
       -0.04007007 0.15943955 0.20081662 -0.2616542
000250 5a 27 7e bd 2f 34 9d be ed 7f 1c be 4c a1 eb 3d
       -0.062049247 -0.30703875 -0.15283175 0.11505374
000260 c6 0c 3b 3e a5 e5 83 be ff 55 9b 3d 58 63 cb bd
       0.18266591 -0.25761142 0.07584762 -0.09931058
000270 cb c2 ef bb 2f 89 97 bd 9c 54 42 be f6 89 3c be
       -0.0073169223 -0.073992126 -0.18977588 -0.18412003
000280 46 e8 97 bd ee 30 e5 bd ea 04 c6 bd bb 6e 22 bc
       -0.074173495 -0.11190973 -0.09668906 -0.0099140955
000290 c0 7a c3 3c 7f a0 4e be 99 e4 9f be b3 88 61 be
       0.023862243 -0.20178412 -0.31229094 -0.22024803
0002a0 fe 9d da bd b5 cf 78 bd f7 de 90 3d a9 0c da bd
       -0.10674666 -0.06074496 0.07073777 -0.10646946
0002b0 e7 5e 11 3e 3e 4c 1d be 48 1e 5e be ff 57 30 be
       0.14196359 -0.15361115 -0.21691239 -0.17221068
0002c0 34 93 18 be 11 29 9a bd c5 8f 09 3e 33 49 f0 3d
       -0.14899904 -0.07527364 0.1343375 0.11732712
0002d0 15 61 93 bd 38 10 4c 3e e2 f5 36 3e b0 d1 35 3d
       -0.07196251 0.19928062 0.17867234 0.044389427
0002e0 68 23 2e 3d 7c e9 18 be d8 ef 25 3e 34 ee 53 bd
       0.042514235 -0.14932817 0.16204774 -0.05174084
0002f0 e7 5f 87 3d 4a a3 54 be 9d 8d 5f be bc 8a 85 be
       0.06610089 -0.20765415 -0.21831365 -0.26082408
000300 34 0a c6 bd 26 03 c9 3d 0e 65 05 3e 62 64 28 be
       -0.09669915 0.09815054 0.1302683 -0.16444543
000310 78 23 aa 3d d3 d8 4e 3e 73 6f 95 be 50 87 0e 3d
       0.083075464 0.201999 -0.29186592 0.034797013
000320 eb 0d 81 be ae df 49 be 4a 80 71 bd 7a 23 f1 3d
       -0.2520593 -0.19714233 -0.058960237 0.11774345
000330 7d 06 83 bd 30 33 a9 3d 4d 7b 30 be c3 3f 7a 3e
       -0.06397722 0.08261716 -0.17234536 0.24438386
000340 02 fd 77 3e 36 c3 57 be ee 89 5c be 0a 5a d2 3d
       0.24217609 -0.21070561 -0.21536991 0.1027108
000350 19 65 10 3e 4f 86 82 bd d0 fd 39 3e ba 27 56 3e
       0.14101066 -0.063732736 0.18163228 0.20913592
000360 73 9b 0c be 8f 08 e5 3d 23 d3 02 3e 89 d4 0d be
       -0.13731174 0.11183273 0.12775855 -0.13850607
000370 4d 01 a7 bd 22 17 a3 bd 98 f4 82 3e 2b df b4 3d
       -0.08154545 -0.079633966 0.25577235 0.088316284
000380 a4 2b f4 bd 16 34 80 3e 13 d7 09 3e 2d 03 0b bd
       -0.11922386 0.25039738 0.1346095 -0.033938576
000390 74 36 9a be 35 38 5b 3e 09 59 48 be d6 a2 c3 bd
       -0.3011967 0.2140816 -0.19565214 -0.09552543
0003a0 8c 23 47 bb a9 1d 27 be 30 6c 32 3d 3c 03 fe bd
       -0.0030386178 -0.16319908 0.043560207 -0.12402961
0003b0 18 a5 08 3d 37 5a 1a be c7 46 74 be 8f cd 24 3e
       0.03336057 -0.15073477 -0.23855124 0.1609404
0003c0 a4 0c e6 bb 91 32 c7 bd d2 bd b7 bd 02 72 c5 3d
       -0.00702055 -0.09726442 -0.08971752 0.09640886
0003d0 b3 e2 f2 3b 17 4c 8f be a7 49 29 3e aa 5d 9e 3d
       0.0074122786 -0.2798774 0.16532002 0.07732709
0003e0 1b 99 2f bd a9 e3 a6 bb 92 9c 14 be fd e0 47 3e
       -0.042870622 -0.005093057 -0.14512852 0.1951942
0003f0 20 b9 21 3e f7 1b f1 bd bd 97 82 be 05 72 05 3d
       0.15793276 -0.11772912 -0.25506392 0.03257944

conv2.bias f4 [64]
000000 8e fa 12 3d b7 84 23 3d 64 51 1a 3d bc ad 0d 3d
       0.03588348 0.03992149 0.037675276 0.034589514
000010 d1 3a 33 3d 0a 0d 08 3d d4 09 3d 3d 84 67 c6 bc
       0.043757264 0.03321556 0.04615195 -0.024219282
000020 12 27 d5 bc a8 3d 31 3d 0a 0f 23 3d 4e 30 d0 bc
       -0.026019607 0.04327169 0.039809264 -0.025413658
000030 2d 8d d2 bc 30 ae d5 bc 56 4f b8 bc f1 97 43 3d
       -0.025702083 -0.026084036 -0.022498768 0.047752324
000040 17 64 db bc 40 6d db bc 83 06 d3 bc 52 5a df bc
       -0.026781125 -0.026785493 -0.025759941 -0.027264748
000050 82 dd 0b 3d 42 88 2f 3d 47 e6 3b 3d cb 86 22 3d
       0.034146793 0.042854555 0.045873906 0.03967933
000060 33 6b 37 3d f3 5c c5 bc 1b d8 a6 bc 26 aa dd bc
       0.044779968 -0.024092173 -0.020366719 -0.027058672
000070 5d 67 ce bc aa a6 ca bc f4 9f 43 3d 9c 25 14 3d
       -0.025195772 -0.024737675 0.047759965 0.03616868
000080 1d f6 c3 bc d2 74 1b 3d fd 6f ca bc bf 83 12 3d
       -0.023921067 0.037953205 -0.024711603 0.035770174
000090 cb b0 27 3d 67 96 29 3d e9 2d d6 bc 9b a8 e6 bc
       0.040940087 0.0414032 -0.026144939 -0.02815657
0000a0 00 e5 3f 3d 64 1a 3c 3d 7c c9 2a 3d 03 91 15 3d
       0.04684925 0.045923606 0.041696057 0.036515247
0000b0 4b a7 bb bc fe b8 cd bc 75 cd ba bc 6a b4 45 3d
       -0.02290692 -0.025112625 -0.022803048 0.04826776
0000c0 c5 86 0e 3d 46 3b e4 bc 54 7c ee bc 0b 6b 5d 3d
       0.034796495 -0.027860295 -0.029112019 0.054057162
0000d0 25 fd de bc 87 77 32 3d 38 45 cc bc 26 0b 22 3d
       -0.027220318 0.04357102 -0.02493535 0.039561413
0000e0 86 f8 c3 bc f0 39 d9 bc ab a2 31 3d 75 c6 1d 3d
       -0.023922216 -0.026516885 0.043368023 0.03851934
0000f0 18 9f 1d 3d dc 07 df bc 3c b0 d5 bc 7d 47 2e 3d
       0.0384818 -0.027225427 -0.026085012 0.042548645

conv2.lin.weight f4 [64, 64]
000000 f2 3e 2d bd 85 be 8b bd 66 6d 10 3e 43 c4 0f 3e
       -0.042296357 -0.06823448 0.14104232 0.14039712
000010 25 c6 37 be 0d 60 51 bb fb f7 fc 3d 9a ca a3 3d
       -0.1794668 -0.003194812 0.12351986 0.079976276
000020 eb 77 c8 3d b1 b2 79 3b 85 7c 29 3e c7 e0 65 3e
       0.097884975 0.0038100893 0.16551407 0.22449027
000030 6d 9f e6 3d 0b 5f 94 bd 1f 50 0a be 00 c4 ea 3d
       0.11260877 -0.072446905 -0.13507126 0.11463165
000040 91 06 31 3e ce be ae bd 2f 64 03 3e 76 7b 58 3e
       0.17287661 -0.08532487 0.12831186 0.21140847
000050 5c 99 15 3e 2f 60 fb 3d 4d db b6 3d 21 25 34 bd
       0.14609283 0.12274205 0.08928547 -0.04398072
000060 00 89 09 3d 5f 6a 6a 3e c0 a2 e5 bd 34 46 70 3e
       0.03357792 0.2289214 -0.11212683 0.2346428
000070 fb be 1f 3e bc f9 9d bd 22 2d 54 3e 8c 34 6b 3d
       0.15600197 -0.07713649 0.20720342 0.05742316
000080 4e ec a0 bc 29 29 99 3d 53 f2 6a 3d ff 57 11 3e
       -0.019643929 0.07478554 0.057360005 0.14193724
000090 88 04 0b 3e 6c be 9d 3c 51 b0 d9 bd a8 0d 3e 3d
       0.13575947 0.01925584 -0.10629333 0.046399742
0000a0 79 d1 ea bc 28 23 6f 3d 83 eb 27 3e 81 4a b6 bc
       -0.028664337 0.058383137 0.16398434 -0.022252323
0000b0 56 08 aa 3d bf da 7a 3e e9 80 6b 3e b5 48 0f be
       0.08302371 0.24497508 0.22998394 -0.1399258
0000c0 33 85 5b 3e b7 3d 7c bc e2 be d9 3c 2f 0d a7 3d
       0.2143753 -0.015395573 0.026580278 0.081568114
0000d0 b6 cb b8 bc 0c 0b 11 be c1 c9 14 3e e7 2a 85 3d
       -0.022558074 -0.1416437 0.14530088 0.065023236
0000e0 38 8c 1e 3e 11 e7 c5 ba 18 b8 cc 3d a1 d5 24 3e
       0.15483177 -0.001509877 0.099960506 0.16097118
0000f0 0d 98 71 3d 4f eb 22 3e e0 89 31 3c 28 b6 66 3e
       0.058982898 0.15910076 0.010836095 0.22530425
000100 da cb 64 3e 86 79 f3 3d 2f 2b 20 3e 01 ad 65 bc
       0.22343388 0.11888413 0.15641473 -0.014018298
000110 16 21 e7 bd e3 f2 03 3d c4 17 77 3e 28 25 2f 3c
       -0.112856075 0.032214057 0.2413016 0.010690011
000120 ee 16 48 3c 8d 3d 01 bc c5 0c 86 3d 29 ee cd bc
       0.012212498 -0.00788821 0.06545404 -0.025137978
000130 05 dd 35 3e 31 c6 af bd 27 20 e1 bd cc a0 c4 3c
       0.17760094 -0.08582724 -0.10992461 0.024002455
000140 90 82 9c bd d3 73 0f be 7e 7f 30 3e cf 88 7a 3e
       -0.0764209 -0.14009027 0.17236134 0.24466251
000150 e8 2a 63 bd 03 17 16 3d 8c 60 13 bd 3d 39 9c bc
       -0.05546084 0.03664304 -0.035980746 -0.019070262
000160 f0 58 47 bd 0e dd 58 3e b0 bd 67 3e 0b 8d 01 be
       -0.0486688 0.21178076 0.22630954 -0.1265146
000170 c3 ff ef 3d b0 7b d6 3d 86 6e 7c 3d 51 71 ef bd
       0.117187046 0.1047281 0.06162884 -0.11691535
000180 d0 31 a0 bd cd 0e 1c be 52 f6 84 bd d8 66 b1 3d
       -0.07822001 -0.15240021 -0.06492294 0.08662194
000190 b2 77 00 3a b8 f7 90 3d db 43 a8 ba 73 90 71 3e
       0.00049006485 0.070784986 -0.0012837605 0.23590259
0001a0 ab 31 a2 bd cc a8 b2 3d f6 81 f6 3d c5 7e ea 3d
       -0.0791963 0.08723602 0.12036507 0.114499606
0001b0 44 4a ea 3d f9 11 b8 bd a4 ee 4e 3e 3e da 59 3e
       0.11439946 -0.08987803 0.20208222 0.21274659
0001c0 02 25 d9 3d 40 85 48 3e 70 ad 23 be 6b 0f 84 bd
       0.10602762 0.19582081 -0.1598413 -0.06448253
0001d0 bd 75 15 3d 4d 01 13 be c3 cb 8c bd cc d3 d1 3c
       0.036489237 -0.14355965 -0.06874802 0.025613688
0001e0 01 e7 a8 bd 1f 44 87 3c 2a e1 54 bd e9 a6 c0 bd
       -0.082471855 0.016511975 -0.051972546 -0.094068356
0001f0 ee 4b 6a bd 99 df c6 39 da 24 49 3e 80 b3 3b 3e
       -0.05720132 0.00037932096 0.19642964 0.18330193
000200 66 58 74 3e 38 ed 13 3d c2 39 3b 3e 83 d8 96 bd
       0.23861846 0.0361149 0.18283752 -0.07365515
000210 f9 a0 02 3d 56 b7 41 3d e1 0d 02 be c1 cc 5a 3e
       0.031891797 0.047293983 -0.12700607 0.2136717
000220 b4 d0 8d bd 84 4d d6 3d af c1 5d 3e 97 07 4b bd
       -0.069245726 0.10464004 0.21655916 -0.049567785
000230 71 2d d1 3d f0 57 1c be 2d 1e 72 3e 45 47 74 3e
       0.102137454 -0.1526792 0.23644324 0.23855312
000240 4c 97 ca 3c 13 e8 28 3e 79 9b d3 bd 1c 0a ef bd
       0.024730347 0.1649478 -0.103323884 -0.1167185
000250 b5 aa 9d 3d 2c 2e 42 bd db e9 9d bd 48 00 c3 3a
       0.076985754 -0.047407314 -0.0771062 0.0014877403
000260 e0 c7 ee 3c 47 7e 27 bd 31 07 4a 3e 2d 6f 94 3d
       0.029148042 -0.04089191 0.19729306 0.072477676
000270 78 a8 59 3e 28 92 53 3b c1 87 a4 bd 7b 5d 1b be
       0.21255672 0.003228316 -0.080337055 -0.15172379
000280 d0 ba bb bd 22 fc 2f 3d d6 82 69 3e 34 8f f6 3c
       -0.09166491 0.042965062 0.22803816 0.030097581
000290 28 0d 14 be b0 76 4e 3c 39 d8 00 be 30 31 34 3e
       -0.14458144 0.0126015395 -0.12582482 0.17596889
0002a0 2f 3f 21 be 43 d7 43 3e 47 6a e3 bc c3 e2 dc bd
       -0.15746759 0.19125085 -0.027760638 -0.10785439
0002b0 e8 84 91 bd 6d e9 2c 3e 3c 9f 42 3e 52 37 b6 3d
       -0.07105428 0.1688592 0.19006056 0.0889727
0002c0 61 29 7e 3e ef 0b 24 be b6 96 1b be fc 6f 8d bc
       0.24820472 -0.16020177 -0.1519421 -0.017265312
0002d0 c9 25 f8 3d b5 56 a7 bc 8c c5 fb 3d 9c 3b 08 be
       0.12116582 -0.020427087 0.122935385 -0.13303989
0002e0 0c 71 6e 3e c8 20 00 be ad db 32 3d ca 9a d5 3d
       0.23285311 -0.12512505 0.04366653 0.10429914
0002f0 03 54 06 3e 57 04 8b 3b e3 18 e5 3d c3 8c f1 bd
       0.13117985 0.0042424607 0.111863874 -0.11794426
000300 92 6f 7a 3e 7a f3 4b 3e c1 4a b3 3d 65 f8 38 be
       0.24456623 0.19917098 0.087544926 -0.18063505
000310 76 5c 1d 3d 2f be 56 3e d0 74 af 3d 52 1f 05 bd
       0.038418256 0.20970987 0.08567202 -0.032500573
000320 4c 45 b4 3d a9 a6 42 3e 25 ce 2c bc ba b4 2a 3e
       0.0880228 0.19008888 -0.010547196 0.16670504
000330 cc 66 02 3d 80 77 ff 3d 3d ce ca bb e6 08 ff 3d
       0.031836316 0.12473965 -0.0061891363 0.12452869
000340 14 e8 22 be 11 60 af 3d d3 17 a2 3c 0c ff 40 3e
       -0.15908843 0.08563245 0.01978675 0.18847293
000350 7d d2 bd 3d dc e2 80 bd b3 d1 21 bb 43 76 1a be
       0.09268663 -0.0629327 -0.002469164 -0.15084176
000360 d4 7a 41 3d 0b 53 74 bc d8 65 54 bd d7 8e 67 bd
       0.04723628 -0.014912377 -0.05185494 -0.056532707
000370 18 10 d9 3d 6b 06 2e 3e a0 0b a6 3d f8 4f bd 3d
       0.10598773 0.16994636 0.08107686 0.092437685
000380 69 07 24 be 4e 38 05 bd db d6 2d 3e 46 ff 73 bd
       -0.16018452 -0.0325244 0.16976492 -0.05956962
000390 fd c9 3f bc f7 0a 33 3e cd 6f 12 be 5f 55 1b be
       -0.011705873 0.17484652 -0.14300461 -0.15169285
0003a0 49 02 f9 bd 64 f4 28 be 6e e2 08 bd 68 92 43 3e
       -0.12158639 -0.16499478 -0.033419065 0.19098818
0003b0 ea 8f 99 3d 5e b2 e3 3d f1 ec 1b be 15 66 4b 3e
       0.074981526 0.11118005 -0.15227105 0.1986316
0003c0 5e 42 0f 3e 9a 2a 0e 3e 4b a2 1a 3e a3 ae 49 3d
       0.13990161 0.13883439 0.15100972 0.049238812
0003d0 a8 e2 d5 bd 66 dd 04 bd 8c 1d 0b be a6 39 2a 3e
       -0.10443622 -0.032437705 -0.1358549 0.16623554
0003e0 45 1d e6 bd bd 20 21 3e 4b 1a 02 be 46 4a f9 bc
       -0.112360515 0.15735145 -0.12705342 -0.030430924
0003f0 fe 41 37 3e 0b 68 74 3e 38 d4 e5 3d ea d6 77 3e
       0.17896268 0.23867814 0.11222118 0.24203077

conv3.bias f4 [2]
000000 84 c4 06 3d 84 c4 06 bd
       0.032902256 -0.032902256

conv3.lin.weight f4 [2, 64]
000000 44 e6 a7 bd 91 75 83 3d a3 4a 97 3e a9 4b 86 3e
       -0.081982166 0.064189084 0.2954913 0.262296
000010 5b dd 02 3d 95 df dc 3d 4f 42 10 be de 3d 3b be
       0.031949382 0.107848324 -0.14087795 -0.18285319
000020 97 2e b4 3d 24 3c 83 bb 2f c3 ac 3e de 42 5e be
       0.08797949 -0.004004972 0.33742663 -0.21705195
000030 1f 57 45 bd d7 73 2f be c5 e9 87 be 17 ad 04 3e
       -0.04817879 -0.17134033 -0.2654554 0.12956654
000040 98 f8 ec 3c e8 6d 55 be 39 1a 2e 3e e0 96 5c be
       0.028927132 -0.20842707 0.1700219 -0.21541929
000050 7d b8 aa 3e 50 76 95 3e 28 48 8a 3e 5d cc 7f 3d
       0.33343878 0.29191828 0.27008176 0.062450755
000060 93 5d 88 3e 3b 06 47 3c 20 09 9c bd e3 15 c8 3d
       0.2663389 0.012147482 -0.07618928 0.097697996
000070 79 8f 81 be c6 8c 33 be e8 ab 2e bd 34 3b aa 3e
       -0.25304773 -0.1753417 -0.04264441 0.33248293
000080 bc 6d 89 be f8 1f 48 3e dd 0f 81 3d ad 05 25 3d
       -0.26841533 0.19543445 0.06301854 0.040288616
000090 a6 21 9d 3e 4e 5e be 3d fd 9b 8a be c9 d5 ed bd
       0.30689734 0.09295331 -0.27072135 -0.11613042
0000a0 77 53 04 bd 9f 21 45 bd ed 07 10 3e 5a 71 8d 3e
       -0.03230616 -0.048127767 0.14065523 0.27625543
0000b0 ce b5 1f be cb 56 c8 bd 9a 39 8f be b6 4b c3 bb
       -0.15596697 -0.097821794 -0.27973634 -0.005959953
0000c0 eb e1 8a 3e 77 ce 51 be 76 2c ca 3d 9f 84 a6 3d
       0.27125487 -0.20488916 0.098717615 0.08130764
0000d0 ec d7 a0 bd 18 c9 82 3e 54 b9 0e 3d b1 ac a8 3d
       -0.07853684 0.25544047 0.03484471 0.08236063
0000e0 47 d8 cb 3d 65 2e c5 3d fc 12 fd 3d 38 c3 03 3e
       0.09953361 0.0962799 0.123571366 0.12867439
0000f0 2d 0d d4 3d 52 01 8e bd 64 a8 4f 3d 05 c6 8b 3e
       0.103540756 -0.069338456 0.0506977 0.27299514
000100 22 25 85 be 73 72 84 be d8 a3 0d bd c2 46 a5 bd
       -0.26004893 -0.25868568 -0.03458008 -0.080701366
000110 67 e4 04 be 66 2f aa be fc e9 a4 be e2 ff 7b 3e
       -0.12977754 -0.33239287 -0.32209766 0.2460933
000120 e1 73 32 3e fd 18 22 be f0 7f a4 be 2b 8c 01 3d
       0.17427017 -0.15829845 -0.3212886 0.031627815
000130 09 f3 66 bc f7 a0 64 3e fd 0f 2f be 26 49 b8 3c
       -0.01409603 0.22327028 -0.17095943 0.022495817
000140 e3 7d 42 3d 9d 20 e8 3d 21 3b 81 3e b0 87 30 3c
       0.047483336 0.113343455 0.25240424 0.010774538
000150 1c eb 4b be 43 e4 93 be 74 e6 61 be b8 d0 25 be
       -0.19913906 -0.28885087 -0.22060567 -0.16192901
000160 59 e7 0a 3e 17 03 d4 3d 67 31 a9 bd ff b4 6a 3e
       0.13564815 0.10352152 -0.08261376 0.22920607
000170 32 85 3c be a9 69 fb 3d b9 be 29 be 3f 05 1d 3e
       -0.18410185 0.122760125 -0.16576661 0.15334032
000180 54 6b 89 3e b3 a1 64 be ce 68 f2 3d 9d d1 9a be
       0.26839697 -0.22327308 0.11836396 -0.30238047
000190 bc d4 7c be 77 82 ad bc c3 e7 96 3d a5 e2 74 3e
       -0.24690527 -0.021180375 0.07368424 0.23914583
0001a0 b8 0a 54 be 72 44 59 be eb bb 28 be 66 aa 56 3d
       -0.20707214 -0.21217516 -0.16477935 0.0524086
0001b0 6a aa 88 3d 87 b4 e4 3d e3 ee 57 3c 9c 32 98 be
       0.06673129 0.11167245 0.013179514 -0.29726112
0001c0 14 23 85 be 81 15 54 3e fb 7c 7c 3e d3 6c 80 bc
       -0.26003325 0.20711328 0.24657051 -0.015676891
0001d0 a1 c4 8e ba 72 10 54 be 58 4e 90 3d d9 21 8a be
       -0.001089234 -0.20709398 0.07046193 -0.2697895
0001e0 99 68 b6 3d b3 f7 8b 3e a1 04 99 be 1a 05 94 be
       0.08906669 0.27337417 -0.29886344 -0.28910142
0001f0 9f a5 93 be 5e d0 2c 3e da 36 2f 3e 15 c9 32 be
       -0.28837296 0.16876361 0.17110768 -0.17459519
