backend/models/traffic_gnn.pt (torch, 29232 bytes, 6 tensors)

conv1.bias f4 [64]
00000000: cfaa cc3c 0885 553d a694 5a3d dde9 16bd
00000010: c5e4 afbd 2e7c 9cbd b1db 093c 61d4 dcbd
00000020: 7471 463c a4ec 02be f5b2 533d b7fb 5d3d
00000030: bcb4 d1ba e8bd c9bd 412a 693c 092f e53b
00000040: 0712 8bbd 462d 3cbd d4a9 233d 45dd 093d
00000050: c4b3 b13c 1949 753d 10a3 96ba f585 4c3c
00000060: ca50 dfbc b656 f33c 67c9 84bd 88aa 343c
00000070: bb1d 683d 4a7a 6b3c 72a0 8abd 7bad fa3c
00000080: 63a6 123d 657e 123d d10f 00be 62f3 953a
00000090: 23cb a23c c9f3 40bd f490 a8bd 4a18 d7bd
000000a0: 4a1c 343b 99ae cb3c 47cb d4bd 35cc e93c
000000b0: 180e dbbd 0162 07be 8292 aebd de42 403c
000000c0: fb21 8b3d 4752 f8bc 2e21 58bc 1561 3f3d
000000d0: 8999 5a3d 2690 bfbd fd1c e53b 5ec4 233d
000000e0: b011 ca3b c25a 133d cd5c 85bb d89b ddbd
000000f0: 0ca7 3e3d 2dbb eb3c 18b1 f0bd ace3 25be
0.024983792 0.05212882 0.05336442 -0.036844123 -0.08588556 -0.07640873 0.008414195 -0.107826956
0.01211201 -0.12785584 0.05168434 0.054195132 -0.0015999298 -0.09850675 0.0142312655 0.0069941324
-0.06790548 -0.045941614 0.039956883 0.033658285 0.021692164 0.059884164 -0.0011492688 0.01248311
-0.027260203 0.029704433 -0.06483727 0.011026986 0.05666898 0.014372418 -0.06768884 0.0306003
0.03580321 0.03576507 -0.12506033 0.0011440332 0.019872254 -0.04710749 -0.082307726 -0.1050268
0.0027482682 0.024863528 -0.103903346 0.028539756 -0.106960475 -0.1322098 -0.08524038 0.011734692
0.06793591 -0.03031267 -0.013191504 0.046723444 0.05336908 -0.09353666 0.006991981 0.039982192
0.0061666593 0.035975225 -0.0040699006 -0.108207405 0.046546027 0.028775776 -0.11752528 -0.16200131

conv1.lin.weight f4 [64, 19]
00000000: da52 bd3d 0fa8 11be 7e1a efbd 56c8 42be
00000010: 7c58 74bd 83f6 713e 6295 843e 5023 3ebb
00000020: ac80 83bd 93d0 fabd 9fe2 abbd 9708 683d
00000030: 4c5d a1bd 7b4f 823e 3b2b 37bd 24ac 7f3e
00000040: 109e 21bd 2c54 12be 2b36 d1bd ddc5 81be
00000050: 86f4 d4bd 1ed2 a1bc c0f5 fdbd 08fc c13c
00000060: 70c5 d13d 2f33 9ebe 33af 85be 7096 63be
00000070: 1843 11be a1a9 ebbd 2755 f03d f4d9 61be
00000080: 871a a1bd 99db 24be 5dc9 593e 243f 103e
00000090: 6323 473e e8a0 b5be 5ce2 7bbd fc5b c3be
000000a0: 9cd8 b5bd fe2d fa3d 2f7f 47be ee21 85be
000000b0: c2df 10be 4606 4a3e 5f09 7d3d 45e8 313c
000000c0: 8a1e 1cbe 6836 18be 3877 81be 09d1 373c
000000d0: 0db6 aebd cecf 783c f4e8 4dbc 70b2 afbd
000000e0: 8405 a8be 61da d63d f407 523e b6d1 b7bd
000000f0: 7d97 5abd a7ed 3dbb f419 46be 7b2d 913d
00000100: e4a9 23be 4043 a4bd 769f 6dbe 2416 283e
00000110: 3495 7bbe 7c80 333d 6f75 2c3e 908e 84bd
00000120: de23 4f3d d9a8 533e b281 8ebd 07c3 133e
00000130: 2473 d33d 1ec4 d6bd 1503 56bc a2f9 9ebc
00000140: e1ba 363d 6c58 e63d f410 57be f6ce 1cbe
00000150: 42ea 933d 6338 97be 76bf 70be a4e1 a03c
00000160: 58d8 c3be 6626 a0be 8b2f 40bc 4cd3 f03c
00000170: 2646 253e 7d50 823d 0adf 32be de8e c13c
00000180: 776c 0b3e 17f5 d8bd 2eff 92bd 596d abbd
00000190: 49ae b63b 4a2a 68bd f982 cc3c 0331 0a3e
000001a0: 0e05 413e ca45 443e 026a 3abe 0e17 33be
000001b0: c2c9 b53d ec46 5c3e 50c2 d73d 757b 93bd
000001c0: b4c8 a6be a407 473d ffca d33d 6f1f 4fbb
000001d0: cbec 91be 41be ff3d dbf1 063e 5cdb 8f3d
000001e0: 7ce9 7bbd da91 62be 6d91 49be cbb3 893d
000001f0: 0a7e 98be cb83 7cbe d2dc 5f3e 2632 7a3d
00000200: 69dc 41be 4fb5 583e 7558 71bc fbea 813e
00000210: f3dd 89be 009c c6bc e980 1b3e 3e3b c13c
00000220: 1434 b7ba 98ec 82bd 295c 30be 09b0 a9bd
00000230: 7f1c 3f3d 0acd 29be 1072 d6ba 1189 3cbe
00000240: b3d4 0d3b 0fcc cc3c 65da 513e a6c9 3b3d
00000250: 6e28 5cbd 8689 57be d18e 603d e55a d63d
00000260: d529 753d c4d6 b6bd 2722 d93d 25cf aebd
00000270: 1a16 2fbe 2046 143e 45b3 67be 53f4 12be
00000280: ee20 8cbd b41b 29be 2aed 183e 4414 373e
00000290: 21f8 10bd 6d61 4ebe 1e1a 37be 72c4 6dbe
000002a0: 7c54 2ebe 8bc7 1fbe 8be8 813d dd73 2c3d
000002b0: 218b 143e 57a7 ccbd 08db 5abd 7c08 e83c
000002c0: 3c33 9c3c e3bc 113e cc39 3bbe 0788 633d
000002d0: 9674 8f3d 7324 4e3d 4550 5d3d 1b99 583d
000002e0: aeb4 bbbe 071b 65be 3e93 9cbc 2507 e23d
000002f0: 71a7 073e 7f49 993d bddf 883c fcb9 2fbe
00000300: 7d98 613d e3f5 79bd cf05 ebbc 52a2 283d
00000310: 9cee f93c 6cba 8fbe f2eb 26be 4c4c 73be
00000320: 7cc9 07be 1e92 02be 95c9 01bb 61db 593e
00000330: 3187 79bd 11c1 64be 1ef0 80be 6c88 17be
00000340: b7d0 063c 8c48 ccbd bcbe 1dbe 21ef 6abe
00000350: 760c 303d 2c25 783c 92d1 6cbe e049 e13d
00000360: 6b7a 64bd 3e5e 8ebe 34f9 88be 5d19 c3bc
00000370: 5915 98be 2e16 99bb 4311 9cbd a0e0 57be
00000380: 5216 df3d 8cb3 8cbd 1488 47be d255 cdbe
00000390: 7227 b53d 115d 983c 6239 cbbc 1d31 71be
000003a0: c9e7 f53c d9cf 07be 49cf 31be 6e71 fe3d
000003b0: 14ba 0c3e 7080 ca3b 15bc 18be c2a1 353e
000003c0: e3e0 8bbd b0cd 4b3e 48af cf3c eb35 96be
000003d0: f815 953c e481 77bd decc d8bd 34b4 713e
000003e0: 70f9 05be 4397 1f3c ba64 35bd 7a04 8fbd
000003f0: 7bc6 1dbc 3133 9abd de28 683e 06b0 cd3d
0.09244318 -0.14224266 -0.11674975 -0.19021735 -0.059654698 0.23629193 0.2589522 -0.0029012747
-0.064210266 -0.122468136 -0.08392834 0.056648817 -0.07879123 0.25451264 -0.044718962 0.2496801
-0.03945738 -0.14289922 -0.1021541 -0.2534627 -0.10398202 -0.019753512 -0.12400389 0.023679748
0.10242736 -0.30898425 -0.2611023 -0.22225356 -0.1418575 -0.115069635 0.117349915 -0.22055799
-0.07866388 -0.16099395 0.2126822 0.14086586 0.19447093 -0.35474324 -0.06149517 -0.38156116
-0.088792056 0.122158036 -0.1948211 -0.2600245 -0.14147857 0.19728956 0.061776515 0.0108586
-0.15246025 -0.14864504 -0.2528627 0.011219271 -0.08530817 0.015186263 -0.012567747 -0.08578956
-0.32816708 0.10490871 0.20510846 -0.08975546 -0.053367127 -0.0028980763 -0.19345838 0.07088753
-0.15982777 -0.080206394 -0.23205361 0.16414696 -0.24568635 0.043823704 0.16841672 -0.06472504
0.050571315 0.20669879 -0.06958331 0.14429866 0.10324696 -0.10486625 -0.013062258 -0.019406144
0.044611815 0.11247334 -0.21002561 -0.15313324 0.072224155 -0.29535207 -0.23510537 0.019638844
-0.38250995 -0.31279296 -0.011730085 0.02939763 0.16140041 0.06363008 -0.17467895 0.023627695
0.13615595 -0.10593622 -0.07177578 -0.08370466 0.0055749756 -0.056680955 0.024964796 0.13495259
0.18849584 0.19167247 -0.18204501 -0.17489263 0.08876373 0.2151143 0.10535109 -0.07201282
-0.32575 0.04859127 0.10341453 -0.003160443 -0.2850097 0.1248746 0.13178198 0.07024261
-0.061501965 -0.2212595 -0.19684382 0.06723746 -0.2978366 -0.2465965 0.2186158 0.06108298
-0.18931736 0.21162914 -0.014730562 0.25374588 -0.26927146 -0.024244308 0.15185894 0.02358782
-0.0013977312 -0.06392783 -0.17222656 -0.08285529 0.046658035 -0.16582122 -0.0016360898 -0.18411662
0.0021641671 0.024999646 0.20493467 0.045846604 -0.053749494 -0.21048555 0.0548237 0.104665555
0.059854347 -0.08927682 0.10602217 -0.085356034 -0.17098275 0.14479876 -0.2262698 -0.14351015
-0.06842218 -0.16514474 0.14934221 0.17878824 -0.035392884 -0.20154352 -0.17881057 -0.23219469
-0.17024416 -0.15603463 0.06343182 0.042102683 0.14506198 -0.09992855 -0.05343154 0.028324358
0.0190674 0.14232211 -0.18283767 0.055549648 0.07004659 0.05032773 0.05403163 0.052880388
-0.36661285 -0.22373591 -0.01911318 0.11036519 0.13247468 0.074847214 0.01670825 -0.17160791
0.055077065 -0.06102551 -0.028689293 0.041170426 0.030509286 -0.28071916 -0.16300943 -0.23759574
-0.13260454 -0.12751052 -0.001980399 0.21275093 -0.060919944 -0.22339274 -0.25183195 -0.14798135
0.008228472 -0.09974775 -0.1540479 -0.22942783 0.042980634 0.015145581 -0.2312682 0.11000419
-0.05578081 -0.27806276 -0.26752627 -0.023815805 -0.29703787 -0.0046718335 -0.0762048 -0.21081781
0.10892929 -0.06870183 -0.19485503 -0.40104538 0.08845414 0.018599065 -0.024807636 -0.23553891
0.03001775 -0.13262881 -0.1736423 0.12423979 0.13742858 0.0061798617 -0.14915498 0.17737487
-0.06830003 0.19902682 0.025352135 -0.2933801 0.018198952 -0.060426608 -0.1058595 0.23603898
-0.13083434 0.009740653 -0.044285513 -0.06983276 -0.009629841 -0.07529295 0.2267184 0.100433394

conv2.bias f4 [64]
00000000: 6a64 94bd 6018 5f3d a527 93bd e727 4bbd
00000010: 7058 38bd 788d 92bd 0335 96bd 4e0d 713d
00000020: 5d10 57bd 1ed6 993d c0ea 2cbd d279 e53d
00000030: 72c5 ac3d e973 aebd b93c b4bd b5c8 33bd
00000040: 899e ac3d c0ce 8bbd 4936 7e3d 6571 94bd
00000050: d99d c3bd f0ea a93d 048b 69bd 8d27 d43d
00000060: 5a40 8abd e50f b93d 7412 9c3d f1cc 8ebd
00000070: 6a55 a0bd 2f18 dbbd 356d c03d a709 83bd
00000080: 818b 9abd d131 b73d 9d2f 6f3d dd52 8abd
00000090: f65d 543d eb97 ad3d 579e 8fbd 6e54 49bc
000000a0: 2996 bb3d bb09 ce3c f7b6 7d3d 294b 953d
000000b0: ba4d 82bd 6843 9d3d d8f4 d33d 5398 e63d
000000c0: 12ad 87bd 4b5a e13d 48ee a93d 58e6 8dbd
000000d0: 85ef d43d 01de 453d 316d 9c3d deb8 e5bc
000000e0: 3a0d 9bbd bc41 83bd 47d3 a53d 348c a4bd
000000f0: 2019 9ebd 8c60 97bc 7cbb c43d d9c2 89bd
-0.07245715 0.054466605 -0.07185296 -0.0495986 -0.045006216 -0.07155889 -0.0733433 0.05885058
-0.05250584 0.07511543 -0.042216063 0.11204876 0.08436097 -0.08518202 -0.088006444 -0.04389258
0.08428676 -0.06826544 0.06206349 -0.07248191 -0.095515914 0.08296764 -0.05701734 0.10359106
-0.06750555 0.09036235 0.07620707 -0.06972683 -0.078287914 -0.10697972 0.093958296 -0.063983254
-0.075461395 0.089450486 0.058395017 -0.06754086 0.05184742 0.08476242 -0.07012623 -0.012288196
0.091595 0.025151124 0.061942067 0.07289726 -0.063624814 0.07678872 0.103494346 0.11259522
-0.066248074 0.1100355 0.08297402 -0.069287 0.10397247 0.048307423 0.07638014 -0.028042253
-0.07570882 -0.06409022 0.080969386 -0.08034554 -0.07719636 -0.018478654 0.09606072 -0.06726617

conv2.lin.weight f4 [64, 64]
00000000: 9c0e 9e3b 3648 6cbe f7dc 41be 6483 4b3c
00000010: 1b69 ecbd a3e6 f53d 51ff 653d ef23 c6bd
00000020: c5a6 b73c 283c d1bc bb9e 96bd 7589 25be
00000030: 41c3 52be 2ec9 adbd 9fb9 e7bd 705c 70bc
00000040: cafc b03c 9eea 13be 1df7 11be 227e cd3d
00000050: dfa2 453e 559e e9bd 92a5 1e3e c92c b7bd
00000060: 0ae2 9b3d 9a38 3bbd 571e 12be da83 c43c
00000070: f9a2 8dbe b2ae c93c 58f3 21be 9c29 db3d
00000080: cbd5 4dbe acb4 b63d d85a a5bc 2c77 f4bd
00000090: 5663 123e 0190 7fbe f9e7 023e 0f3e 21bc
000000a0: 776b c23d 16fd d23d 0837 33be b8f4 023e
000000b0: 467e 613c 4890 643e d2df 183d e2d8 9bbd
000000c0: 6602 2c3d 2393 b4bc 6f4f 1abc 070e 62be
000000d0: 18e0 1dbd 82b6 56bd 39f5 50be 2eef 88be
000000e0: dbe6 52be da18 283e 58db 223e 6d09 253b
000000f0: 2709 133e 3b95 983d d7c1 3abe 6c6d 40bd
00000100: 33a1 ab3d 0615 e23d 9939 6a3e 00e9 073e
00000110: de61 a2bc b7b3 03bc 026b 083e 4db1 2a3e
00000120: a8bd 3fbe 603a 203e 4283 3e3d a5f1 32bd
00000130: 0ae6 293d 4ff9 42be 364b 5d3d 425d 243e
00000140: b7ef 123e 0df8 15be 9a80 8d3c 85bb b03c
00000150: 89a1 4b3e dc0f de3d f5dd 30bd 7aed 31be
00000160: a8fb a33d 2560 0b3e 0705 dfbd 3dd7 43bd
00000170: 81d4 643e 1143 45bd 519d 1fbe 8b48 ca3d
00000180: b5d9 b13b 9d70 223e 7463 1f3e dc30 313e
00000190: 2516 083e dd36 a5ba 4eb2 573e 4b47 343e
000001a0: 8732 603e 6fb2 303d b2e8 6dbd 6f47 8bbd
000001b0: 27e6 70bd 0ac9 573d dc75 19be 4921 4d3e
000001c0: a0af 63bd 08fd af3d 0e15 21be 0b70 f2bb
000001d0: a4e6 433e cb76 003b de34 31be a4e1 083e
000001e0: 9d80 02be 1ef1 483e b0f7 213e 3740 86bd
000001f0: b2da abbd 2d08 2cbe bfd7 013e 202d 19be
00000200: 9552 383d ad8b 0ebe db8b f53c 9f1f 993d
00000210: 6e08 c83b b72b 6b3d 6390 0bbe 640c 18be
00000220: 1bc7 06bb 53ff 033e fa1b 27be 51a4 be3d
00000230: cb10 81be 93a8 43be 5297 0bbe 0774 bdbd
00000240: a801 00bc c7d4 05be cdbb 0fbe 0647 08be
00000250: da6a 5d3d 19e7 d83c b3f7 64be 8849 7bbe
00000260: 87c7 b23d 2885 56be 1966 8dbe f7c2 4cbe
00000270: 2f98 acbc 265b c6bd eea9 4abe 4ce7 99bd
00000280: ca0d 69bc f532 babd 909e 68be 8d66 8f3d
00000290: 4af4 093c bb31 27bd 6c01 63bd 8b60 b13d
000002a0: 55cc a4bd 0141 833c b942 41be 554b 2e3a
000002b0: 6063 29be 0639 38be 8ff5 66be f506 2d3d
000002c0: 35c6 fdbd 1155 0a3e ab50 93be ea3a 53be
000002d0: 233f 90be 016b b1bd 6120 b03c c4c6 85be
000002e0: 6992 c13d ba66 ae3d e5d5 5bbe d808 833d
000002f0: 836b a5bd 7e00 7cbe fc7b 4fbe c4a3 8cbd
00000300: b5e3 1ebe 79c1 0f3d 2fc9 823d 52f5 973d
00000310: 7cdd 84be ebe6 433d 48ce eb3d 9213 8c3c
00000320: c633 57bd 42c4 46be a4a8 083d fb43 4cbe
00000330: 94ea 78bd e9a8 91bd 8532 00be 6b9a 563e
00000340: 9af1 08be 9dff 9d3d a47f fcbb 33f1 2abe
00000350: 2c8d 0cbd ca30 48be 159c 093e cb22 25bc
00000360: b3b2 74be a1d4 4b3c 602d 57be 57c4 15bd
00000370: c71f 6cbe a7fe 65be 87cf f83d 459f fc3b
00000380: 5fac 94bd 8e86 f43d 9522 d6bd 04e2 78be
00000390: e851 7cbc 7bd5 81be 92c6 133e 2ad7 eabd
000003a0: dc4e 953d 2106 dabd 9052 fa3c 780d 38be
000003b0: e213 53be 18c0 febd 0844 0b3f ba28 5abe
000003c0: 88fd 3ebe d9f3 e1bd 2faf d6bd 53f1 31be
000003d0: b93c 95bd 6922 133c 47a8 51bb e11e b6bd
000003e0: d023 07be bee2 023e abd0 07be c075 033d
000003f0: bbc6 9ebd 83dc 613d 19eb fcbd 621d 0bbe
0.004823519 -0.23074421 -0.18931948 0.012421463 -0.11543485 0.12006881 0.05615169 -0.096748225
0.02241839 -0.02554138 -0.07354494 -0.16165717 -0.20582296 -0.084856376 -0.11314701 -0.014670476
0.021604914 -0.14444968 -0.14254422 0.100338235 0.19300412 -0.114071526 0.15492848 -0.08944089
0.07611473 -0.045708276 -0.14269386 0.023988653 -0.276634 0.024619434 -0.15815485 0.10701296
-0.20101087 0.08921179 -0.02018492 -0.11936793 0.14295706 -0.24957277 0.12783803 -0.009841456
0.094931535 0.103021786 -0.17501462 0.12788665 0.013763016 0.22320664 0.037322827 -0.076097265
0.041994475 -0.022042817 -0.0094183525 -0.22075664 -0.03854379 -0.052420147 -0.20406045 -0.2674498
-0.20595877 0.1641573 0.15903986 0.002518262 0.1435896 0.074503385 -0.18238007 -0.046979353
0.08380356 0.11039166 0.22873534 0.13272476 -0.019822057 -0.008038453 0.1332207 0.16669197
-0.18724692 0.15647268 0.046511896 -0.04368748 0.041479148 -0.19040416 0.054026805 0.160512
0.14349256 -0.14645405 0.017273236 0.021573791 0.1988584 0.10842869 -0.043180425 -0.17375746
0.08006984 0.13610895 -0.10889631 -0.04781269 0.22346689 -0.048159663 -0.15587355 0.09877118
0.005427564 0.15863271 0.15565282 0.17303795 0.13289697 -0.0012604852 0.21064112 0.17605321
0.21894275 0.043138918 -0.058083244 -0.06800734 -0.05881324 0.05268196 -0.14986366 0.20032229
-0.05558741 0.08593184 -0.15730688 -0.0073986105 0.19130951 0.0019602056 -0.17305323 0.13367325
-0.12744375 0.19623229 0.15817142 -0.06555217 -0.08391322 -0.16799994 0.12679957 -0.1495862
0.04500063 -0.1392047 0.029973915 0.07476734 0.0061045205 0.057414737 -0.13629298 -0.14848477
-0.0020565453 0.12890367 -0.16319266 0.093086846 -0.25208125 -0.19107275 -0.13631943 -0.09250646
-0.007812895 -0.1306945 -0.14036484 -0.13308343 0.05405698 0.026477383 -0.22360115 -0.24539769
0.08729463 -0.20949233 -0.27616957 -0.19996248 -0.02106866 -0.09685354 -0.19791386 -0.075148195
-0.014224479 -0.090917505 -0.22716737 0.07001982 0.008420059 -0.04081891 -0.055421278 0.08660992
-0.08046786 0.016022207 -0.18873109 0.00066487986 -0.16541815 -0.17990503 -0.2255461 0.042242963
-0.123913206 0.13509013 -0.28772482 -0.20627943 -0.2817317 -0.086629875 0.021499814 -0.2612821
0.09451754 0.08515687 -0.21468313 0.06398171 -0.08077147 -0.24609563 -0.2026214 -0.06867173
-0.15516551 0.03509662 0.06386029 0.07419838 -0.2595023 0.047827642 0.115139544 0.017099176
-0.05253961 -0.19410804 0.033363953 -0.19947807 -0.060770586 -0.07112295 -0.12519272 0.20957343
-0.13373414 0.0771477 -0.0077056456 -0.16693573 -0.03431432 -0.19549862 0.13438447 -0.010079096
-0.23896293 0.012440831 -0.21013403 -0.036564197 -0.23058997 -0.22460423 0.12148958 0.007709416
-0.0725944 0.11939727 -0.10455815 -0.24304968 -0.015400387 -0.25358185 0.14431217 -0.114668205
0.07290432 -0.106457 0.030556947 -0.17973888 -0.20613053 -0.12438983 0.5440068 -0.21304598
-0.18651402 -0.110328384 -0.10482632 -0.17377214 -0.072869726 0.008980372 -0.003199117 -0.088926084
-0.13197255 0.12781808 -0.13263194 0.032094717 -0.077527486 0.055141937 -0.12349529 -0.13585427

conv3.bias f4 [18]
00000000: ca1c 653e afa7 63bd 39de 11be bbe9 9ebd
00000010: 2db9 66bd 763d 33be dd30 05be b690 3ebc
00000020: 775a b5bd 9a0d 8cbc c6b9 27be 7080 25be
00000030: 93f5 253c 0975 8b3d 8f0f 8a3d 78ee 8bbd
00000040: 0ba2 4dbe 4621 4abe
0.22374263 -0.055579837 -0.14244927 -0.07759424 -0.05632894 -0.17503914 -0.13006921 -0.011631181
-0.088551454 -0.01709633 -0.1637946 -0.16162276 0.01012935 0.06809432 0.06741249 -0.06832594
-0.20081346 -0.19739255

conv3.lin.weight f4 [18, 64]
00000000: 7562 55bc fe68 5f3e 8529 cebd 8c7a 6b3d
00000010: 47d6 ae3d a0be 4d3d ee9a 82b9 35b7 363e
00000020: dd2c 4fbc 09fe 6e3e f4a8 f73d cce3 7e3e
00000030: 819a 9e3e 25aa b8bd 306e 8ebd 5205 013e
00000040: 25d6 883e fcc7 99bd 8d76 153e eada 45be
00000050: 30ec 6c3d e21b 8a3e cc0c 20be e35b 5b3e
00000060: ea9c 32be 40c9 843e c506 b63d eec3 c6bd
00000070: 74a6 d8bd dc7d 1bbd 3813 533e 4dd2 10be
00000080: f357 e43c 0c93 8d3e 4301 233e 5ef7 15be
00000090: 1372 c63c b7fd d43d a77f 47be fdd8 e13d
000000a0: 7115 823e c4a8 643b 4cbd 883e 0129 473e
000000b0: f8f4 16be e0cc 643e bd61 413e b16e 683e
000000c0: 9e86 36be bc37 1a3e f11a 6e3e 24f8 12be
000000d0: 47ad 6e3e d44b 7d3e 20d3 5f3e a26e 093e
000000e0: 3d20 95bd cb4c d2bd 1c15 713e 71d4 243c
000000f0: dbfe e2bd 0e1c 593e c69c 883e bc92 4dbe
00000100: 1cb7 153d 6d0e 283d 2f5b 36bc 28eb 75bc
00000110: 14e9 1ebe b879 8ebd 6a56 43bd efb0 803e
00000120: 92de 46be 2ebf 18bd f4db 553e a11f 2a3e
00000130: 1de5 b93d a57a a9be 2dce c43c ca2d a5bd
00000140: f79e 14be 024d f4bb 01b4 6c3e 3efd e43d
00000150: cdaa 34be e006 5abd 8bb2 8ebb e393 623e
00000160: cd94 1cbe f434 00be 0889 313d 90dc 8abe
00000170: e19a 373e ec1e e03c 0dc4 093c df81 c03d
00000180: 782f 7dbe 9001 193e 919c 663d 30c6 92be
00000190: 3fb5 61be 2431 b13d abcb 753d 423d 96be
000001a0: 781f 8c3d 14da 64bd 1bf7 1ebe 438f bc3d
000001b0: ae89 3abe dddb d8bd cdae 283d e8cb 29bd
000001c0: 6d1f 63be 1f53 b0bd 6ae5 503d 288f 253e
000001d0: ddb3 bc3d 6b47 023e de98 6b3e 454b dfbd
000001e0: 17fa a63d ea59 3dbe 608d ca3d 41d2 183e
000001f0: 3d4b 123e 9ca3 543d 39c9 bb3c 2370 34be
00000200: 07ec efbd 39d2 f3bd a1b8 6abd acdc af3d
00000210: 45d2 813d 4649 a1bd f1e3 e43e 8fad f63d
00000220: 2420 923e bef5 38be 0153 643e 8d02 a93d
00000230: 6db2 87be c4cc 83be 52f2 0cbe 3ab0 acbe
00000240: 6b81 5dbd 221a a4bd 01ad 043e 744e f9bd
00000250: d24c 76bd 9b4c 02be 45f7 91be 7c75 52bd
00000260: 58a5 29be 6a26 af3d fc9f 973d 36ba 4abe
00000270: 9b57 3c3e dbec 7fbd eb1a 35bd 6bc0 2dbe
00000280: 8d8b 14be 23cc 69bd fa57 533c 02db c5bd
00000290: 95dc f5bd d9d2 30bd 6df0 edbd 9b34 63be
000002a0: 896e 383e 8d1f 99bd 9f5d 4bbe 0abf a73d
000002b0: aaa3 adbe a25c 60be 94b4 82bd e124 0f3e
000002c0: 54b0 bb3d d120 41be e3b4 1f3e 50dd 76be
000002d0: 89e5 34bd 7926 05be 70d6 c4bd 2e25 ddbd
000002e0: a37c 81bd f55c 423e d13a 563d b4e3 92be
000002f0: dac3 4dbe 582e 64be 9094 ef3c 97d3 5f3d
00000300: f9d2 ffbd 3409 34bd e835 28be 3302 c2be
00000310: bb0d 883e af9f 98be ef4c b8be 3c90 c2bd
00000320: 8611 0ebe 52d4 b83d 598e 2cbd e4df c53d
00000330: 5c1e 373e f63d acbe 0009 d83d f8b2 943e
00000340: 1af2 04be 8c3c c9bd a4a9 283d 450e 2cbd
00000350: f7ba 8abe e867 5d3e afee c63d 4e35 f03d
00000360: 05d1 fcbd 1454 683e 03a1 40be ecda 61be
00000370: d61f 07be c67a a03d 1142 803e 7ee5 57be
00000380: f408 9b3d c657 af3d 883f e5bc 46a5 2c3e
00000390: 145f ba3d 69f5 063d 372a c5bd 25e6 adbd
000003a0: 7db4 723e 7b93 c5bc 6322 b03c 23ad 34be
000003b0: b669 19bd 19c6 16be b071 403e b4b7 973d
000003c0: ea98 343e f259 113e 1100 25be 0d22 56be
000003d0: 7d16 213e 1ebd b33c 4d51 8e3c b572 213e
000003e0: 8d4e 92bd 42c3 73be a163 1a3c 0f28 3f3e
000003f0: e701 ae3d db47 b03e 0bed 7a3d e450 f73c
-0.013023962 0.21817395 -0.10066513 0.057489917 0.08536964 0.050230622 -0.00024910964 0.17843325
-0.012644974 0.23339094 0.12092772 0.24891585 0.30977252 -0.090168275 -0.0695461 0.12599686
0.2672588 -0.07508847 0.14596005 -0.1932179 0.057842433 0.26974398 -0.15629882 0.21421771
-0.1744267 0.25934792 0.0888801 -0.09705339 -0.105786234 -0.037961826 0.206128 -0.14142723
0.027873969 0.2765125 0.1591845 -0.14645144 0.024224317 0.10399955 -0.19482289 0.11027715
0.25406983 0.0034890631 0.26706922 0.19449235 -0.14741886 0.22343779 0.1888494 0.22698475
-0.1782479 0.15060323 0.23252465 -0.1435247 0.23308288 0.24735957 0.21857882 0.1342111
-0.072815396 -0.10268553 0.23543209 0.010060416 -0.11083766 0.21202108 0.2668211 -0.20075506
0.03655158 0.041029382 -0.011130138 -0.015009679 -0.155186 -0.0695681 -0.047689833 0.2513499
-0.19420841 -0.0372917 0.20884687 0.16613628 0.09076903 -0.33101383 0.024024094 -0.08065374
-0.14513765 -0.007455469 0.23115541 0.111811146 -0.1764328 -0.053229213 -0.00435478 0.22126727
-0.15291138 -0.125202 0.043343574 -0.271214 0.17930175 0.027358495 0.008408559 0.09399771
-0.24725139 0.14942002 0.056301657 -0.2866683 -0.22041796 0.08651951 0.060008686 -0.2934361
0.0684194 -0.055872038 -0.15523951 0.092070125 -0.18216583 -0.105888106 0.041182328 -0.041454226
-0.22179957 -0.08609604 0.051000036 0.16167891 0.09213994 0.12722556 0.23007533 -0.109030284
0.081531696 -0.1849133 0.098902464 0.14923956 0.14286514 0.051913843 0.022923099 -0.17620902
-0.117149405 -0.11905331 -0.057304982 0.08587012 0.06338934 -0.07875304 0.44705155 0.120448224
0.28540146 -0.18062493 0.22297288 0.0825244 -0.26503316 -0.2574216 -0.13764313 -0.337282
-0.0540785 -0.08012797 0.12956621 -0.12173167 -0.060131855 -0.12724535 -0.28508964 -0.051381573
-0.1656698 0.08552249 0.074035615 -0.19797596 0.18392794 -0.062481742 -0.044215124 -0.16967933
-0.1450636 -0.057079446 0.012899393 -0.09660913 -0.12004963 -0.04316983 -0.11618123 -0.22188036
0.18010916 -0.07476721 -0.19859932 0.08190735 -0.33913928 -0.21910337 -0.06382099 0.13978912
0.09164491 -0.18860175 0.15596347 -0.24107862 -0.044164214 -0.13002957 -0.09611213 -0.10798107
-0.06322601 0.18980773 0.052302185 -0.2868935 -0.20094243 -0.22283304 0.029245645 0.054645147
-0.12491412 -0.04395409 -0.16426814 -0.37892303 0.26572976 -0.2980933 -0.35996196 -0.09500167
-0.13873872 0.09024872 -0.04212794 0.096618444 0.17882675 -0.33641022 0.105485916 0.29042792
-0.1298298 -0.098260015 0.041177407 -0.042005796 -0.27095768 0.21621668 0.09713494 0.11728917
-0.12344555 0.22688323 -0.18811421 -0.22056168 -0.13195738 0.07835917 0.25050405 -0.21083638
0.07570067 0.08561663 -0.027984396 0.16859922 0.09100166 0.032948885 -0.096271925 -0.08491162
0.23701663 -0.024118176 0.021500772 -0.17644171 -0.03745433 -0.14724006 0.18793368 0.074080855
0.17636457 0.14194468 -0.16113307 -0.20911427 0.15731235 0.021940764 0.017372752 0.15766414
-0.071438886 -0.23804954 0.009423167 0.18667625 0.084964566 0.3442982 0.061261218 0.030189939
